tmp/src/test/mar_init/mar_12_mar_init.pth (torch, 291149 bytes, 72 tensors)

transformer.proj_in.weight f4 [32, 16]
00000000: 9cb3 143e 5e79 9c3b 6aa5 a6bd fcb6 36be
00000010: 3ba0 3e3d 1887 76be 80b2 283e 1a82 373e
00000020: ae4d 753e 9d0b 68bd 4e0f bcbd 9e55 913d
00000030: 7e08 64be b69e 733e 5ade ec3d 5e0f e0bd
00000040: b694 72be 41eb 9f3d 08ca ed3c f2f5 1dbe
00000050: 8260 7fbe 4664 5bbe 21f8 b73d d353 a1bd
00000060: 7b0b 89bd cd64 8e3d 989f bcbc b8a0 62be
00000070: 0fd0 2abc d853 f1bc 3459 63be 2442 6dbd
00000080: 9faf 803d 11dc 16be 253a e9bc 65b4 063e
00000090: d1d4 46be fd46 1ebe a141 2f3e 337b 7abd
000000a0: bbf0 58be 05df 4d3e 21b2 0fbe 3358 3bbd
000000b0: 4b18 fd3d 3307 3d3e 3d8c 453d 7964 49be
000000c0: 753b 66be 810d 65be c0f6 d43c 8191 0cbe
000000d0: 5926 583e 35d5 773e 7b2b 8d3d f58b 91bd
000000e0: ce91 74bd efb6 d43d 2714 34be bf28 173c
000000f0: 8a85 4f3d e1fc 0bbe a1dd 21be a00f a3bc
00000100: 05a1 52be 89d2 50be f92e 473e 56e6 d73c
00000110: 6b4e 5dbe 8bd9 533d 3d7e 41bd 47a2 243e
00000120: 9a72 c7bc cb7a 163c 5067 a4bd 08d9 a0bd
00000130: 7982 0c3e cb34 013d 9830 a6bd 955d 1c3e
00000140: 778d f23d bd0b 9fbd 98b1 263e 0c46 0cbe
00000150: 8245 543e 0c7c 62be 6b99 ac3d 2098 6e3e
00000160: 2a15 26be 60ae 733e 473f 6ebc 7b6e 66bd
00000170: 0822 00be 9553 403d 0360 8c3d 19de 5e3c
00000180: aff1 833c 2d7c 30be bd49 cfbd 0dc8 2f3e
00000190: 51d0 3c3e d17c 79be 995a 44be ef7f b13d
000001a0: 3bd4 e63b 9172 04bd 4f0b e63d 4774 5b3e
000001b0: fdd8 e6bd b97b 193e 57d2 163e 6d4b 7c3e
000001c0: 098c 9bbd a16c 1dbd e49c b7bc f002 313e
000001d0: 04be b3bc 1cc7 a93c 1679 1fbe 72f2 b13b
000001e0: 3219 bf3b c01f 6ebe c2d0 233e 2f9f 8f3d
000001f0: f960 8cbd 925a 4abe 9c9c 6b3e 13dc a53d
00000200: 78cc c93d 8f63 253e cff2 773e 2085 883d
00000210: 6662 5a3b c5bf 1e3e 9ece 963c a592 443e
00000220: 6fec 083e 2d1b 37be d7fc 70be 9321 0dbe
00000230: e818 91bd a136 48be 971c 3dbe 7cc7 cb3d
00000240: 7594 09be 8bdb bf3d a367 f43d ab5c 53be
00000250: 1a7c 51bd 67e2 1abe 939c ae3d bf65 0a3e
00000260: ae06 663d a13f 92bd 8f3b 46be b415 fbbc
00000270: ac96 e93c c149 3d3e 31ed 50be a3d8 78be
00000280: 4948 5dbe b126 7bbc 23e8 62be 584b e3bd
00000290: 130b 163e fd23 113e d3ad 63be 75aa 73be
000002a0: 59a5 62be 6b67 753e 63e3 6abe 5f7d 0cbe
000002b0: 1b37 193e 1c7c fc3b 5c9b da3d 9b97 0b3e
000002c0: e880 29be 9a28 41be f6d1 91bd d011 7f3e
000002d0: 48b5 7e3e 8e5a 2b3e 32e0 51be 4eed 6cbe
000002e0: 8a5d 543e 81e6 28bd da71 38be d4f6 5b3e
000002f0: 8086 6f3e 58ad 4dbe 89f8 a8bb fae6 eebd
00000300: 7d7f 97bd ac20 253e cc83 5bbd 104e 20bc
00000310: b420 2a3e f886 d63c a19e c0bd 44d1 74bd
00000320: dcd2 6dbe 1c26 333d 79e5 87bd 61fa 9fbb
00000330: 1cc0 1a3d 95cf e4bd e7fa ab3d 8ed7 283e
00000340: 008b 3fbe 32a8 4b3e 0220 83bd 867d 713e
00000350: ee53 6abe bae7 7bbe 18f7 673e 0e51 35be
00000360: 6e09 913d 893b 0ebc d6b5 4b3d 9484 50be
00000370: 40db 9fba feaa 7f3d eae6 aabd 86cf 6d3e
00000380: 4e20 603e 7450 613d 428a 153e 2870 533e
00000390: 8e63 563e 16d7 ad3d dc78 60be 7afa 5f3e
000003a0: 329b 2f3b dc86 37bd aae8 b23d 0ea8 0e3e
000003b0: 84e8 3dbe ce84 0f3e 141b 4f3d d6d5 53be
000003c0: 1a31 0bbe 4c70 e2bd 64fe 8c3d b857 9abd
000003d0: e611 153e 40f1 2fbe 487c 09be 3c37 56bd
000003e0: 198c 9b3c 3c6e 783e c444 30bd 8014 ed3d
000003f0: 9cce 6fbd d460 4f3d ac3f c13d 6630 353e
0.1452164 0.0047752103 -0.08137019 -0.1784324 0.046539526 -0.24074972 0.16474342 0.17920724
0.23955414 -0.0566517 -0.09182607 0.07096408 -0.22268865 0.23791012 0.11565848 -0.10940431
-0.23689541 0.07808543 0.029027 -0.15425852 -0.24939159 -0.2142497 0.08982874 -0.07877316
-0.06691643 0.0695282 -0.023025319 -0.22131622 -0.010425582 -0.029458925 -0.22201997 -0.057924405
0.06283497 -0.14732386 -0.028470108 0.13154753 -0.1941712 -0.15456767 0.17114879 -0.06115265
-0.21185581 0.20104606 -0.14032795 -0.04573841 0.12358149 0.18459778 0.048229445 -0.19667234
-0.22483619 -0.22368433 0.025996566 -0.1372738 0.21108378 0.24202426 0.06893059 -0.07106773
-0.059709363 0.10386454 -0.17585813 0.009226023 0.050664462 -0.13670684 -0.15807201 -0.019904912
-0.20569237 -0.20392813 0.19451512 0.02635495 -0.21611945 0.051721137 -0.04723953 0.16077529
-0.024346638 0.00918455 -0.08027518 -0.078538954 0.13721646 0.031544488 -0.08114737 0.15270074
0.118433885 -0.07765911 0.16278684 -0.13698596 0.2072964 -0.22117633 0.084277 0.23300219
-0.16219011 0.23796988 -0.014541454 -0.056257706 -0.12512982 0.04695471 0.0685425 0.013602757
0.016106455 -0.1723487 -0.10121486 0.17166157 0.18438841 -0.2436402 -0.19175185 0.086669795
0.007044343 -0.03233582 0.11232626 0.21431075 -0.11271856 0.14988603 0.14728676 0.24638148
-0.07595069 -0.038433675 -0.022413678 0.17286277 -0.021941192 0.020724826 -0.15573534 0.005430513
0.005831861 -0.23254299 0.15997604 0.07012784 -0.068544336 -0.19761112 0.2300896 0.080986165
0.098534524 0.1615126 0.24213718 0.066660166 0.003332281 0.15502842 0.01840907 0.19196565
0.13371442 -0.1788146 -0.23533951 -0.13782339 -0.070848286 -0.1955209 -0.18467937 0.09950158
-0.13435538 0.093680464 0.1193383 -0.20640819 -0.051143743 -0.15125428 0.08525958 0.13515376
0.056158714 -0.071410425 -0.19358657 -0.030649997 0.028514229 0.18485166 -0.20402981 -0.2430139
-0.21609606 -0.015329049 -0.22158866 -0.11098355 0.14652662 0.14173885 -0.22234277 -0.23795493
-0.22133388 0.23965232 -0.22938304 -0.137197 0.14962427 0.0077052247 0.10674164 0.13632052
-0.1655308 -0.18863145 -0.07120125 0.24909139 0.24873841 0.16733763 -0.2049568 -0.231374
0.20738807 -0.04123545 -0.18012181 0.21480876 0.23391151 -0.20085657 -0.005156581 -0.11665149
-0.07397363 0.16125745 -0.05359249 -0.009784237 0.16614038 0.026187405 -0.09405256 -0.059769884
-0.23224968 0.043737516 -0.06635565 -0.0048821424 0.037780866 -0.11172406 0.08397465 0.16488478
-0.18705368 0.1988838 -0.064025894 0.2358304 -0.22883579 -0.24600115 0.22652853 -0.17706701
0.07081877 -0.0086811865 0.04973396 -0.20363075 -0.0012196079 0.06241893 -0.083448246 0.23223695
0.21887323 0.055008367 0.14603522 0.20648253 0.20936415 0.0848829 -0.21921104 0.21872893
0.0026795384 -0.044806346 0.087357834 0.13931295 -0.18545729 0.14015505 0.050562933 -0.2068704
-0.1359295 -0.11056575 0.06884459 -0.07536262 0.14557609 -0.17181873 -0.13426316 -0.05229877
0.018987702 0.24260801 -0.04303433 0.11576176 -0.058546647 0.050629452 0.094359726 0.17694244

transformer.proj_in.bias f4 [32]
00000000: f333 233e db18 9dbd daff 7abe 6663 9f3d
00000010: e6d7 e33d 3a6b c9bd d258 0abd f7ea 0cbe
00000020: 90b1 6abe 153f f0bd f6ee c2bd 79c3 383d
00000030: 88ef 28bd 9719 04be de19 a6bd 21ef bcbd
00000040: b146 19be ab7a 26be b38c dbbd 48e2 66be
00000050: a4e8 77be 9c86 85bc 8720 75be e233 533e
00000060: 1f71 7ebe 17b8 a73d e2bc 593e e463 0c3e
00000070: 5715 59bd e3f1 3e3e f7e8 05be f00d 113e
0.15937786 -0.076707564 -0.24511662 0.077826306 0.11125164 -0.09834905 -0.033776112 -0.13761507
-0.22919297 -0.11730782 -0.095182344 0.045108292 -0.04124406 -0.12900387 -0.081104025 -0.09225298
-0.14968373 -0.16257732 -0.107201956 -0.22547257 -0.24209839 -0.016299538 -0.2393819 0.2062526
-0.2484784 0.08189409 0.2126346 0.1370998 -0.052998867 0.1864696 -0.1307715 0.14165473

transformer.layers.0.attn_norm.weight f4 [32]
00000000: f007 803f 5cf0 7f3f cbf2 7f3f 4bfa 7f3f
00000010: 7607 803f 4f06 803f 11f4 7f3f 8906 803f
00000020: 0af3 7f3f c707 803f e8f3 7f3f 99f4 7f3f
00000030: fc04 803f 37f3 7f3f e306 803f c905 803f
00000040: d706 803f 6cf1 7f3f ab06 803f e407 803f
00000050: b406 803f 40f4 7f3f 6bf0 7f3f 6e08 803f
00000060: 8f07 803f de06 803f 1a08 803f 0404 803f
00000070: 2d05 803f 0ff0 7f3f ac07 803f 51f2 7f3f
1.0002422 0.99976134 0.9997985 0.9999129 1.0002277 1.0001925 0.9998179 1.0001994
0.99980223 1.0002373 0.99981546 0.999826 1.0001521 0.9998049 1.0002102 1.0001765
1.0002087 0.99977756 1.0002035 1.0002408 1.0002046 0.9998207 0.99976224 1.0002573
1.0002307 1.0002096 1.0002472 1.0001225 1.000158 0.99975675 1.0002341 0.9997912

transformer.layers.0.attn.q_proj.weight f4 [32, 32]
00000000: a4f9 13be 6134 7bbd 57a0 f0bd 3a8c ffbc
00000010: db1a 563d c8c5 8c3d 06bd 9dbd ec04 95bd
00000020: c372 dfbd 10f4 5b3d 4c04 a8bd 24b5 14be
00000030: 615c 27be 82af f13d 0f70 af3d 557a fc3d
00000040: 50a0 b63d 978e e63d 63f8 b73d caa0 a2bd
00000050: e541 1a3e b8d1 a3bd cc1f 303e 6c77 15be
00000060: 855d d73d c051 2cbe 5a6b e83d d67d 28be
00000070: f325 fdbd edbb ca3d aef7 373d ead4 02be
00000080: fa84 2b3e ff28 03be fcff 173e a51c 17be
00000090: 4fcd 2d3e c703 8a3d ce43 db3d 2784 33be
000000a0: 2a6b 073e 8a48 84ba 1522 bb3d 2544 983d
000000b0: c2cb 123e e134 b23c 424f 1a3e 3c9b f43c
000000c0: 9ad9 30be 1d41 adbd 0581 28be 6bec e9bd
000000d0: 6a04 8b3d 9ae1 103e 03dc a43c 978b a5bc
000000e0: 4501 15be e504 82bd 8413 febd be9a 2d3d
000000f0: f815 a83c 83fe c7bd c690 debd ccd7 f83d
00000100: bf98 2b3e 5858 d2bd da7f 073e 6423 203e
00000110: ea9b d43d 2b16 36bd 85d1 2b3e 3273 2cbc
00000120: 7b3d 793d cd44 c5bd 2dc6 613d dd96 aa3d
00000130: 653a 07be 5c83 c13d aa67 10be 7fdc 233d
00000140: 481d 683d 345a 33be ab8f 22be be32 3f3d
00000150: 0ee1 3cbc 8ed4 24bd bd65 c4bd 033f fcbd
00000160: 3cee 013e d9fd 5e3d 74f8 0dbd ca55 8bbd
00000170: fa9e 26be 94f4 223e f2da cb3d f42c a5bd
00000180: b3e5 46bd 9e47 1bbe 294a c8bd c179 1cbe
00000190: c5c4 1d3e e678 483d 69dc 30be a592 e3bd
000001a0: e718 f9bd 4660 873d f810 653d d30a f0bd
000001b0: 1688 02be f34d 9b3d a825 e0bd 7cf1 ab3d
000001c0: 0274 863b b00b dabd 328e 61bd b47f c7bd
000001d0: 345b 0abe f4c2 fcbd bc76 2ebc 5cb1 873d
000001e0: 8813 8fbb 9827 833d d31c 18bc 0460 2b3e
000001f0: 5307 043d feba 293e 01bd a0bc e76d 82bd
00000200: c76e a5bc 55e9 1c3e 7a36 34bd e492 2a3d
00000210: 079b 0e3e ffdf 093e fd3f 04be 458c 11be
00000220: cc5e cdbd dc53 c23d fe6d eebd b203 f03c
00000230: 3d96 2b3e dd95 16be a584 26bd 992c f53c
00000240: 8070 8c3d 6b74 243e 2a3c acbd 5e47 01bd
00000250: 5350 9b3d a980 d03d 1e74 05be 970a ac3d
00000260: db10 713d 43fc d73d 47f5 443b fcd5 c9bd
00000270: 1056 f3bd 8801 283e c1a2 9abd 3d9d f53b
00000280: 80f1 eb3d b4c9 bbbd 323b bc3d 9067 c6bd
00000290: b10d 24be 4c59 25be a5fc 9cbd c89a 2dbe
000002a0: 28d8 16be 8a51 b93d b94e 6e3d 26be 9ebd
000002b0: f020 25be 4f1c b3bd b579 1bbd 78da 1e3e
000002c0: d4b2 bfbd 36c5 a83d bf45 2d3e fcb3 31be
000002d0: 128c 223e 4246 ff3d af12 733d 4888 11bc
000002e0: fa54 193e d889 353d 7716 34be a7c5 fc3d
000002f0: 0b5e de3d c91d 2ebe 1820 01be b31a 813d
00000300: c6e7 7f3d 50ac b03d 3fc5 843d db53 19be
00000310: 47ef 95bd 2dca cf3d 701b 2a3e 4879 1ebe
00000320: 2457 9bbd 07d1 7ebd 53e2 ffbd 2cc6 073e
00000330: bf11 593d 49ae 27be 056f 3abd 414d b03c
00000340: 8d49 9c3d e275 bfbd e2ee bbbc 59b1 eebd
00000350: 7b1e f13c 8ad4 2abd e637 07bd 3513 c9bd
00000360: d173 8dbd eddf 41bc 7e82 883c e704 a1bd
00000370: 95ac 0dbe 5c31 ffbd bbba 413d 2d3c aa3b
00000380: 8505 0bbe 4ce8 2e3e 113f f93d 1132 263e
00000390: 2b59 d83c a679 c9bc 569b 9fbd f75e 0bbe
000003a0: dbe1 27be d2bb 133e de8a cdbd 231b 173d
000003b0: ffe5 90bd 35b8 073d 10f9 bebd 8418 c03c
000003c0: 7840 243e 7cd0 ca3b 6427 953d 045a 0ebe
000003d0: da50 e33c fd6d 083e 4e6e b63c 1c6c cfbd
000003e0: e5b6 30be 399f 40bd 0db1 2b3e 1925 903d
000003f0: 8570 2a3e 6057 763d 35ae 893d 49a3 2abe
-0.14450699 -0.06132925 -0.117493324 -0.031194795 0.052271705 0.06873661 -0.07702069 -0.072763294
-0.10910561 0.053699553 -0.082039446 -0.14522225 -0.16343834 0.118010536 0.08566295 0.123280205
0.08917296 0.112576656 0.08982923 -0.07940824 0.150642 -0.07998985 0.1719963 -0.14596337
0.10515884 -0.1682806 0.11348601 -0.16454253 -0.12360754 0.09899125 0.04491394 -0.12776533
0.16749945 -0.12808608 0.14843744 -0.14757021 0.1697285 0.06739002 0.10706292 -0.17530881
0.13224474 -0.0010092419 0.0913736 0.074348725 0.1433554 0.02175373 0.15069297 0.029859178
-0.17270508 -0.08459685 -0.16455467 -0.11422046 0.06787951 0.1414856 0.020124441 -0.020208163
-0.14551266 -0.0634859 -0.12406066 0.0423839 0.020518288 -0.09765341 -0.10867457 0.12150535
0.16757487 -0.102707565 0.13232365 0.156385 0.10381301 -0.044454735 0.16779144 -0.010525512
0.060849648 -0.09632263 0.055120636 0.08329556 -0.1320587 0.09448883 -0.14102045 0.040005203
0.05666855 -0.17514879 -0.15875117 0.04667925 -0.011528267 -0.04024177 -0.095897175 -0.12316706
0.12688535 0.054441307 -0.03466077 -0.06803472 -0.16271582 0.15913612 0.0995387 -0.08065215
-0.048558902 -0.15164039 -0.0977977 -0.1528082 0.15407093 0.048943423 -0.1727158 -0.111119546
-0.12162953 0.066101596 0.055924386 -0.117208146 -0.12747225 0.07583227 -0.10944682 0.08395669
0.0041031847 -0.106467605 -0.05506725 -0.09741154 -0.13511354 -0.12341872 -0.010648426 0.066256255
-0.004366342 0.06404036 -0.009284216 0.16735846 0.032233547 0.16575238 -0.019621374 -0.063686185
-0.020194424 0.15323384 -0.043997265 0.041643992 0.13926326 0.13464354 -0.12915035 -0.14213665
-0.10027847 0.09488651 -0.11642073 0.029298637 0.1675653 -0.14705606 -0.040653843 0.029928492
0.06857395 0.16060035 -0.08409913 -0.0315622 0.0758368 0.1018079 -0.13032576 0.08400457
0.058853965 0.10546162 0.0030053423 -0.098552674 -0.118816495 0.16406834 -0.07550574 0.007495551
0.11520672 -0.09169331 0.09190978 -0.09687722 -0.16020848 -0.16147345 -0.076653756 -0.16953576
-0.14730895 0.090487555 0.058180545 -0.07751112 -0.16125846 -0.08745634 -0.037957866 0.15513027
-0.09360281 0.0824074 0.16921137 -0.17353815 0.15873745 0.124645725 0.05934399 -0.00888259
0.14973822 0.04432091 -0.17586695 0.12342387 0.10857781 -0.1700355 -0.12609899 0.063039206
0.062476896 0.08626616 0.06482934 -0.14973395 -0.07321029 0.10145984 0.16612029 -0.15475953
-0.0758498 -0.062211063 -0.1249434 0.1325919 0.05299544 -0.16375078 -0.045516033 0.021521213
0.07631216 -0.09348656 -0.022941057 -0.1165492 0.02943348 -0.0417066 -0.033012293 -0.098181166
-0.06906856 -0.011833173 0.016663786 -0.07862263 -0.13835366 -0.124605864 0.04729722 0.005195162
-0.13576324 0.17080802 0.12170232 0.16230036 0.026409706 -0.02459414 -0.077933 -0.13610445
-0.16394751 0.14427117 -0.100362524 0.036891114 -0.07075118 0.033134658 -0.09324849 0.02344919
0.16040218 0.006189404 0.07282904 -0.13901526 0.027748514 0.13323207 0.022269394 -0.10128042
-0.17257269 -0.047026847 0.16766758 0.07038326 0.16644485 0.06014192 0.067226805 -0.16663851

transformer.layers.0.attn.k_proj.weight f4 [32, 32]
00000000: ea3a 6d3d c555 1cbe b7ec 933c 0933 f03d
00000010: 08c8 923d 759c 1c3c 8263 65bd 2d14 eabd
00000020: a6b1 163e 930f 043d dff5 11bc 1058 9f3d
00000030: eb84 b13d da36 1c3e d71e d0bc 137d e33d
00000040: 7dee 95bd 187e 26bc 9697 4dbd 956c a5bd
00000050: 9fb6 243e 1af4 cfbd d95f 07be c5c0 2ebe
00000060: 8911 cdbd 10d9 133e 2889 0c3e ca6b 0d3e
00000070: 300d ae3d 0701 13be 2af3 cb3c 778e 57bd
00000080: fb4a e93d f3be b73d 91ce bdbd 1b46 10be
00000090: 8802 273e 15ce 33be 9564 19bd bbff 01be
000000a0: 7ab0 c23c 47be 1b3e 0aa3 fcbb 71b0 debd
000000b0: adee c93d fdf5 9e3d a343 16be 39ac 4fbd
000000c0: 7791 323e 8685 963c 270b 72bd e80d c9bd
000000d0: 9d6d ae3d a9e5 f0bd 485e 26be 1cbb b93d
000000e0: 6c94 20be 1e5f d5bd d8a2 11be dcb8 113e
000000f0: fc90 0c3e fc74 2ebe 0ff1 0e3e 59f6 ce3d
00000100: a26c 2e3e 1971 eabd a7cc 893d cd02 ec3d
00000110: 5616 e7bd b107 ffbc 6f5e 1b3d 6ac6 04be
00000120: c2fd 173e b2dd 143e ed87 f7bd 829c 883d
00000130: 619d d13d ec07 dabd 7296 08be 94f6 a13d
00000140: dff9 e7bd e3c1 f4bd 5c05 17be 87c2 c73d
00000150: c17f e7bd aa68 493c 474d ad3d 5fb6 91bd
00000160: e423 83bc 6ecc a43d 9a98 81bc 75de 273d
00000170: 3aff 34be 3185 cb3d ab26 923d fcf1 33be
00000180: c052 d03d 45ad 123e 1a07 9d3c 173a 0b3e
00000190: beac 56bd cac0 aa3d 98c6 aebd 515c 09be
000001a0: 0f0b 01bd dd99 d73d e73e 833d d870 91ba
000001b0: ab09 873d 3da1 143e b86b 153e 4321 233e
000001c0: 855d d03d df2a 50bc 411a 76bd 042e 343c
000001d0: 13e2 0cbe 793a 603c 2327 9f3d ccc1 1fbe
000001e0: 0120 8dbd ac14 d33c 1a95 283e c09e 1dbe
000001f0: eb7f 96bd 7456 abbd 058e adbd d333 0a3e
00000200: 2c17 093d 13c2 bf3d 68d9 04be e6f7 87bd
00000210: 180d 773d a212 d6bb 6c93 8f3d aab0 0abe
00000220: c29b babd f274 e1bd 0610 85bd 0ec4 84bd
00000230: de36 49bd d024 7dbd f22f 633d 01fd 80bb
00000240: 7759 0ebe 6fe6 7bbd 39b9 1c3e df73 873c
00000250: 29cf a2bd edf8 cc3d 1f7d 903d 5521 953c
00000260: dadb bc3c 3a76 b93d 47f4 de3d f679 aabc
00000270: e212 03bd e6ce 15be eacc d03d 0fcf 1b3e
00000280: 85d9 ff3d 85d2 96bd fcf1 9b3d 853b 003e
00000290: 09e1 0fbe 1b67 16be f4ec 07bd ae73 c53a
000002a0: f624 963d a43f 1cbe 6588 a93d 7413 a23c
000002b0: 2aa1 283e fdff 383d dd94 cb3d 4772 9a3c
000002c0: 7252 0b3e 262e 0d3e f0e6 47bc fa6a 1b3e
000002d0: 41c7 d13d fc7e abbd 041d 18be 2592 39bc
000002e0: f8c8 323e fe12 883d 4e3f c93d cf36 83bd
000002f0: 1615 853d 7507 ee3d f419 2ebe c0b8 02be
00000300: 1c20 93bd f78b 29bb e0f8 a53d 4719 2dbe
00000310: b8f1 ddbd d393 9e3d d0b0 223e a2f7 d2ba
00000320: d7e0 ae39 396d 1fbc 536a 133e e2c1 06be
00000330: 56f7 893d 0fbc 1d3e d762 15be d0c2 173e
00000340: ff33 7ebd c02a a5bd 54fb 0d3e f3bd 27be
00000350: 2b4f 833d 07d6 133e 28c1 76bc 19b1 dfbd
00000360: 8c12 003e 9306 33bd 744c 80bd 7ff5 85bd
00000370: c845 eabd ba6d 2ebc d3d0 0ebe 38a7 1ebe
00000380: dd39 2d3e af71 233e ce07 d93d ffd7 033e
00000390: 04b6 783d 962e 2cbc 41bf e7bd cbee 39bd
000003a0: 2b26 9b3d e6dd c6bc a097 213e 328e af3d
000003b0: c1ca 22be ac22 713c 1d20 f9bd a1c8 e1bd
000003c0: 09d6 30bc 38cd b53d 7d2c 973d d7bc 363c
000003d0: c3f8 6abc 39f1 1abe 1dc9 0a3e 6d75 4bbd
000003e0: e8d6 83bd 2d43 12be ca17 b63a 33ac 203e
000003f0: 6bc4 e2bb 68a2 b43d 5742 e03d 39f0 9d3d
0.057917513 -0.15267093 0.01805721 0.11728484 0.07167059 0.009558787 -0.0560031 -0.114296295
0.14716205 0.032241415 -0.008908718 0.077804685 0.0866793 0.15255299 -0.02540533 0.111078404
-0.07320879 -0.010161899 -0.05019339 -0.08077351 0.1608529 -0.101539806 -0.13220157 -0.17065723
-0.1001311 0.14438272 0.13724196 0.1381065 0.08498609 -0.1435586 0.024896223 -0.0526261
0.113912545 0.089719675 -0.09267915 -0.14089243 0.1630956 -0.17559083 -0.037449438 -0.1269521
0.023765791 0.15209304 -0.0077098655 -0.10873497 0.09859977 0.07761762 -0.14674239 -0.050701354
0.17438303 0.018374216 -0.059092667 -0.098171055 0.08517001 -0.11762554 -0.16246903 0.090688914
-0.15681618 -0.10418533 -0.14222276 0.14230675 0.13727182 -0.17036813 0.13959144 0.10105581
0.17033628 -0.11447353 0.067284875 0.11523972 -0.11283557 -0.031131597 0.037931856 -0.12966314
0.14842895 0.14537695 -0.12086473 0.066704765 0.10235096 -0.10646042 -0.1333864 0.07908359
-0.11326956 -0.119510435 -0.14748138 0.097539 -0.11303664 0.01229302 0.08462005 -0.07114863
-0.016008325 0.08046804 -0.015819836 0.040983636 -0.17675486 0.099375136 0.071362816 -0.17572778
0.10172033 0.1432391 0.019168425 0.13596378 -0.052410834 0.08337553 -0.085339725 -0.13414122
-0.031504687 0.10527394 0.06408482 -0.0011096252 0.06593641 0.14514633 0.14591873 0.15930657
0.101740874 -0.012705534 -0.06008363 0.010997299 -0.13758115 0.013685816 0.077711366 -0.15601271
-0.0689087 0.025766693 0.16463128 -0.1539259 -0.07348617 -0.08366099 -0.08474354 0.13496332
0.033469364 0.093631886 -0.12973559 -0.0663908 0.06031522 -0.006532983 0.0701054 -0.13543954
-0.0911174 -0.11008634 -0.06497197 -0.06482707 -0.04912459 -0.061802685 0.055465646 -0.0039364104
-0.13901316 -0.061499055 0.15305032 0.016534744 -0.07949669 0.10008416 0.07055115 0.01820437
0.023054052 0.09055753 0.10886436 -0.020810109 -0.03200043 -0.14629707 0.10195334 0.15215705
0.124926604 -0.07364372 0.07614514 0.12522705 -0.14050688 -0.14687769 -0.03318496 0.0015064382
0.073312685 -0.15258652 0.08277968 0.019784667 0.16467729 0.045166004 0.09940503 0.01885332
0.13605669 0.13787135 -0.012201056 0.15177527 0.10243083 -0.0837383 -0.14854819 -0.0113263475
0.17459476 0.066442475 0.098265275 -0.06406938 0.064981624 0.11622516 -0.17002088 -0.12765789
-0.07183859 -0.002587078 0.0810411 -0.16904174 -0.1083712 0.07743039 0.15887761 -0.0016095529
0.00033355385 -0.009730631 0.14396028 -0.13159898 0.06736629 0.1540377 -0.14588486 0.14820409
-0.062061306 -0.080647945 0.13865405 -0.16381054 0.064115845 0.14437114 -0.0150607005 -0.109224506
0.12507075 -0.04370744 -0.06264582 -0.06540965 -0.11439091 -0.010646278 -0.13946848 -0.15493476
0.16916604 0.15961336 0.10597192 0.12875365 0.06072046 -0.010509154 -0.11315776 -0.045393746
0.07575639 -0.024275731 0.15780497 0.085720435 -0.15897657 0.014717739 -0.12164328 -0.11024595
-0.010793217 0.08877033 0.07381532 0.011153421 -0.014341536 -0.15131082 0.13553281 -0.049672533
-0.064374745 -0.14283438 0.0013892588 0.15690689 -0.0069203875 0.08820039 0.10950153 0.077118345

transformer.layers.0.attn.v_proj.weight f4 [32, 32]
00000000: 27d2 a2bc 6d69 1e3e d1c9 ee3d 5d00 b8bd
00000010: 072a 323e b581 29bd b9e2 28be 8b39 e43d
00000020: 7457 08be 01c1 0dbd 60f8 06be e7f2 5f3d
00000030: 24ef 1e3e 889c 173e 122c e6bd 98ae d83c
00000040: 666c 0dbe 8439 06be 34ef 1cbd d5a1 d43d
00000050: f093 a53d 9f19 043d 905d c73c 4871 cb3d
00000060: 1915 24bd 3b6a 213e c45f 0b3e 6b89 4f3d
00000070: 46fb 0dbe ef9b 3fbd 3cf5 91bd ac5c ac3c
00000080: 2cd1 18be ac65 19be 827e 92bd 6095 2fbd
00000090: 36de d03d b4e3 d2bd bf71 31be 4097 07be
000000a0: bb3b 09be 0ea7 833c ec17 30be 2cf8 efbd
000000b0: acf2 243d c740 2a3e 9b06 09be e15b 1fbe
000000c0: feb1 df3d 294e d4bc 66e5 233e 1256 e43d
000000d0: fc1c 0fbe 0e81 963d 5fec 08be 8c6e 27be
000000e0: e291 843d cfc8 5b3c 9bab d7bd dc9b ddbd
000000f0: ac05 b5bc bf26 513d 50cb 6e3b 4d8d 1f3e
00000100: f18b f8bc 4d7d 89bd 1513 9d3d b087 d6bd
00000110: ca64 d03d 43f7 67bd 6788 91bc c093 11be
00000120: f29e 113d 4f46 b93d 55c0 19be 0bd9 43bd
00000130: b743 1ebe 3d17 1fbe 6d96 d03d c790 173d
00000140: 5faa d5bc 686b 2d3d 08d9 2bbe 31fd f03d
00000150: 695f 0fbd 0c13 bbbc 8bb0 2d3e 1aab 9e3d
00000160: 9cad f13c aa2c d0bd d53d 1a3e daf3 163e
00000170: cf21 05bd 285d 303d fa71 003e 5b24 afbc
00000180: 852e 2b3e 9883 093e f238 cb3d c65f 25be
00000190: 3036 723d 7523 203d e02f 073d 6f6c 31be
000001a0: 36e9 e53c 897e babd 6eb2 c93c efaf ce3c
000001b0: 29da 0c3e 05b0 b2bd 105d e9bd 5baf c8bd
000001c0: aec3 ee3c e3e6 c2bc cf3d 2fbe 61e3 293d
000001d0: 55aa fabc 364b 683d 852d 1fbe b578 163e
000001e0: bf6c 01be f70b 67bd dad2 d0bd e8aa 2a3e
000001f0: a74f 8ebc 4cd0 113d 473c cb3b 7440 1abe
00000200: 9611 adbc 26af 1fbe 5e0d cabd 4ac0 06be
00000210: 26f2 2a3d 2dbe e4bd 7e85 6f3c 5119 be3d
00000220: 7fa9 8f3d 9be5 99bd c964 483c f4b5 ff3d
00000230: 1459 7cbd 9562 113e a976 8e3b 9a8b c33d
00000240: 6feb 1c3e 15fb 2a3e 38b5 79bd 9ce9 04be
00000250: 6593 2cbe 4160 2a3e 23db 1d3c 43e9 ce3d
00000260: d0f6 173e 5c85 28be 655b 523d dda2 cbbd
00000270: dbe3 803d a74d 2dbe 5a6b 1e3e db8c 14be
00000280: 308f e6bd e969 dcbd 7c08 42bd 289d 923d
00000290: b68a 06be d9b0 27bd 8f07 2bbe a978 6cbd
000002a0: 11c2 073d 54e3 2f3e 84e5 253e 1a6a 203d
000002b0: 8a7c e43c 86a2 fbbd f4e7 a2bc bf6b 393d
000002c0: b383 57bd 8898 23be 7cfd a33d b883 003e
000002d0: becf 843d 3fef 103e 1cde ccbd 5028 203d
000002e0: a44b 6a3d 7309 f5bc b6ea e0bd 24c7 7bbc
000002f0: e4f5 ddbd 93f1 193e d26b ebbd 9188 cabc
00000300: 1ad2 8bbd 348e fc3d e02d acbd 97d4 323e
00000310: db81 dc3c 0a0d 833d 3adb 5e3d 6a77 3bbb
00000320: f73f e53d 5a79 123e 2673 19be 31c8 52bc
00000330: 83d5 babc c24a 7ebd ffcf 88bc a4a5 fb3d
00000340: c029 00be 173d b4bd e4d9 103e dd98 a8bd
00000350: 14e9 013e 314e 19bd 40f0 7fbd 8c81 0f3e
00000360: 0e40 8a3d affd fc3c d3e9 e0bd c6ce 8f3c
00000370: 9680 333e 750a c1bd 8596 89bd 711e a13d
00000380: bcc0 043a c0ff df3d 0441 853d fd46 33be
00000390: be36 093e c1fa 6f3d 025d 14be d059 7ebd
000003a0: 55bd 113e 329d 1e3e 637e ebbb c80b e13d
000003b0: 9a15 ea3c d92c 34bd 865c 8f3d e7dd 1e3e
000003c0: 7184 7cbc 6036 4abd 1d6c 30be 1d70 d83c
000003d0: 9ef1 20be 63df 01bd 2ec8 193e 7cf2 0b3e
000003e0: 508d 20bd 8fbe 2cbe 5af5 6f3d 8b34 0fbe
000003f0: 506a 57bd a127 dcbd d0bb 96bc 4dde 533d
-0.0198756 0.15469904 0.11659587 -0.08984444 0.17398845 -0.041383464 -0.16492738 0.11143788
-0.1331461 -0.03460789 -0.13180685 0.05467501 0.15520912 0.14805806 -0.112388745 0.02645044
-0.13810882 -0.13107878 -0.03831406 0.103824295 0.080848575 0.032250997 0.024336606 0.09933716
-0.040059183 0.1576318 0.1361075 0.05066816 -0.13865384 -0.04677957 -0.07126853 0.021040283
-0.14923543 -0.14980191 -0.07153036 -0.042867064 0.101986334 -0.10297337 -0.17328547 -0.13241291
-0.13401692 0.016070869 -0.17196625 -0.11717257 0.040270492 0.16626273 -0.13381426 -0.15562393
0.10922621 -0.025916176 0.16005477 0.11149229 -0.139759 0.07348834 -0.13371418 -0.16350764
0.064731374 0.013414576 -0.10530778 -0.108207434 -0.022097431 0.05106234 0.0036437102 0.15581246
-0.030340167 -0.06713352 0.07669655 -0.10475099 0.10175474 -0.05663229 -0.017765237 -0.14216518
0.035551973 0.090466134 -0.15014775 -0.04781441 -0.15455519 -0.15536208 0.101849414 0.037003305
-0.026082216 0.04233876 -0.1678201 0.117670424 -0.0350031 -0.02283623 0.16961877 0.07747479
0.029501729 -0.10164769 0.1506265 0.1474146 -0.032502946 0.04305759 0.12543479 -0.02137964
0.16716965 0.13429105 0.09922971 -0.16149816 0.05913371 0.039096314 0.03300464 -0.1732652
0.028065305 -0.09106166 0.024621215 0.025230376 0.13755096 -0.08724979 -0.113947034 -0.097990714
0.029146042 -0.023791736 -0.17113422 0.04147661 -0.030598799 0.05671235 -0.15544708 0.14694484
-0.1263914 -0.056407895 -0.10196467 0.16666758 -0.017371966 0.035599038 0.006202254 -0.1506365
-0.02112655 -0.15594158 -0.09865831 -0.1315929 0.041734837 -0.11169086 0.014619229 0.092821725
0.07014751 -0.07514497 0.01223106 0.12485877 -0.06160839 0.14197762 0.0043476415 0.09548111
0.15324186 0.16697343 -0.06096384 -0.1297974 -0.16853102 0.1663828 0.009634766 0.10103085
0.14840245 -0.16457123 0.051356692 -0.09943173 0.0629346 -0.16924153 0.15470639 -0.14506857
-0.112577796 -0.10762388 -0.047371373 0.071588814 -0.13138852 -0.04094014 -0.16702102 -0.057732258
0.03314406 0.17176563 0.16200835 0.039163686 0.027891416 -0.12286858 -0.019885994 0.04526877
-0.052615833 -0.15976155 0.08007333 0.12550247 0.06484936 0.14153765 -0.100033015 0.039100945
0.057201043 -0.029911732 -0.109822676 -0.015367303 -0.108379155 0.1503356 -0.114951745 -0.024723323
-0.06827183 0.123318106 -0.084071875 0.17463909 0.026917389 0.063989714 0.05440829 -0.0028605112
0.11193841 0.14304104 -0.14985332 -0.012865112 -0.022806888 -0.062083013 -0.016700743 0.12287453
-0.12515926 -0.088007145 0.14145619 -0.08232281 0.12686568 -0.037428085 -0.06248498 0.14014262
0.06750499 0.030882685 -0.109820984 0.017554652 0.1752952 -0.09425823 -0.067181624 0.07867134
0.000506412 0.10937452 0.06506541 -0.17507549 0.13399789 0.058588747 -0.14488605 -0.06209737
0.1423238 0.15489653 -0.0071866973 0.10988575 0.028574754 -0.043988083 0.07000069 0.15514337
-0.015412436 -0.049368262 -0.17228742 0.026420647 -0.1571717 -0.03170718 0.15017769 0.13666719
-0.039197266 -0.16869567 0.058583595 -0.13984887 -0.052591622 -0.10749746 -0.018400103 0.051725674

transformer.layers.0.attn.out_proj.weight f4 [32, 32]
00000000: 49e1 15be 2c7e 003d c9a5 28be eae7 cb3d
00000010: 988f 24bd 7fa1 c33d b66e 31be a34d a3bd
00000020: 6578 003e 5806 b63d 23be f13c 03fc 10be
00000030: 8dca 94bd 8c1b a6bd 6be3 783d c59c 1cbe
00000040: 412b cb3b 9519 7bbd b5e3 d0bd a8de 08be
00000050: 4cf7 7e3c 333d 593d 2a0a 6739 1582 643d
00000060: 8389 1abe 2530 aa3d 9479 fc3d c731 943d
00000070: 2cb9 5c3d f2b1 1d3e dc3e dc3d e4fb aabd
00000080: 10f7 51bc e65c 84bd 509a 253e 3f39 893d
00000090: 6115 5b3d 6433 25be f44f 273e 45c5 803b
000000a0: 7636 b3bd 314a 3cbd ce71 ffbd 7c30 c4bd
000000b0: 01ba 12be 76bd 2cbe 1baa b1bd e06c a33d
000000c0: 7b21 4a3d c4eb 123e fd19 e7bd ba15 b5bd
000000d0: b902 78bd af83 e9bc b8fd 3e3d 507f 803d
000000e0: 1845 d1bd 6fbf 1ebe 9003 313d a348 223e
000000f0: 09e6 e13c 27ae 1e3e ff79 9c3d c6a5 05be
00000100: fee9 713c e6e2 90bd a9d4 f6bd 941e 273b
00000110: 28c5 93bd aae7 973d 5b25 9b3d a7a1 7b3c
00000120: d8e1 723d 5ef7 babc 5613 0bbe 1a78 173c
00000130: 387d d03d c6df 31be 0d57 b8bd eafd 673c
00000140: 011f 0bbe 2fb1 c53d 005e 143d 1680 c2bb
00000150: 5685 1fbe f6f8 193e 3368 9cbd fd82 14be
00000160: 5cc7 da3d 5c0f 85bc 4f4f e43d 09e0 88bd
00000170: 3d7e bc3d 8a84 99bd d452 1ebe 7793 fbbd
00000180: 6905 ac3d 30e1 9fbc 7ef2 ecbd e2fb d0bd
00000190: edd2 d73d 725c 2b3b 18c8 213e 6bbe a0bd
000001a0: ef8a 20be 6d00 9b3d 3ba8 1fbe 5d2b 993c
000001b0: 40df 3a3c 90e9 023c 48e6 f6bd 3a0e 233e
000001c0: a15b b73d 7991 85bc 18d3 20bc 858d f23d
000001d0: b651 f0bd 08e6 30be cb77 de3d cdce a23d
000001e0: 2487 5cbd 3e09 eb3d c5cc 323e 9235 12be
000001f0: 9a41 11be 1405 c3bd 5656 153e b930 093c
00000200: 1770 473c 6fed 5a3c 8821 283e f824 eebd
00000210: 17eb e8bd f4fc a1bd 464f 8ebd 3151 2d3e
00000220: 69de f6bd 08dc 133e b735 343e 618e 24be
00000230: 2071 173e 25ec 27be e64f 0cbe 6e4b b53d
00000240: 7905 b0bd 0479 e33d 209a be3d 2912 17be
00000250: 9ee5 babd 2202 243e 6b7f 163d d21a 28be
00000260: 4c8e 003d 63ca 9f3d a6bb 18be cc2e fb3c
00000270: 72ac bcbd 0f2e 32be a319 77bd 2922 683d
00000280: 4b4c ecbd 97f6 0bbe 7018 b5bd 3a40 513d
00000290: 39aa 2e3c f510 71bc 4337 e3bd 8d85 1c3e
000002a0: ac42 c83d 41aa 37bb 28bb 2b3e 14b3 133e
000002b0: 33d0 0ebd 6e58 bf3d c0e7 753d dc2b 003e
000002c0: 5132 0bbe 551f 323e 6985 2abe e1a2 a53c
000002d0: 84b3 2db9 8654 323e ae8f a23d 91dc 253e
000002e0: 280f 02be d7f0 a43d 60d7 a43d 8778 b03b
000002f0: 3e26 4bbd a6d3 063e 117d a5bc 6d81 aabd
00000300: 2b42 cebd ea0a e23d 331f 1d3e 17b8 1e3d
00000310: c623 133e 7f01 233e 692c 9d3d f4ac b6bd
00000320: c206 d7bb 8244 843d 07a0 e83d 1008 333e
00000330: eb4c ad3d e20a 27be 2d8e 14bd c43e 4d3c
00000340: 60e4 18be 75a7 fbbd 0bee c73d 3c79 893c
00000350: ff83 1c3e b457 c83b 809d c73d e32e 12be
00000360: ed78 0d3e 31ed 96bd 9fd8 993d 0637 923d
00000370: 29c9 efbd 4f43 15be 9021 ed3d 59c0 28b9
00000380: d4e5 333c 1d85 dcbb 8e5e 1fbe 14a1 2cbd
00000390: a84c 17be e4d6 093e 2413 adbd e533 e63d
000003a0: b11c e9bd 187b 803c 1732 213e 01c3 13bd
000003b0: 9943 1bbd 8101 a93c 372f c23c d5fe d5bd
000003c0: 8a10 4d3c 4fd8 143d c403 833d 5673 193e
000003d0: 59cb 363d 856e 8b3d 79a5 f9bd 0137 09be
000003e0: 74d6 1bbd ad2a 27be a0c2 0fbe 9cae bfbc
000003f0: 193e 693a be88 e3bd 7d56 c1bd e265 b3bd
-0.1463672 0.031370327 -0.16469492 0.099563435 -0.040176004 0.09552287 -0.17327389 -0.079737924
0.12545927 0.08887929 0.02950961 -0.14158635 -0.07265196 -0.08110723 0.060763758 -0.15294178
0.0062002246 -0.061303694 -0.10199682 -0.13366187 0.01556189 0.05303688 0.00022033663 0.05578812
-0.15091519 0.08309964 0.12327877 0.07236057 0.05388753 0.15399912 0.10754177 -0.083488256
-0.012815252 -0.064630315 0.16172147 0.06700372 0.053487185 -0.16132885 0.16339093 0.0039297664
-0.08750622 -0.045969192 -0.124728784 -0.0957956 -0.14328767 -0.16869149 -0.08675023 0.07979751
0.049348336 0.1434775 -0.11284254 -0.08842035 -0.06054947 -0.028505174 0.046628684 0.06274283
-0.10218257 -0.15502714 0.043216288 0.15848021 0.02757551 0.15496121 0.076404564 -0.13051519
0.014765261 -0.070745274 -0.120522805 0.0025500404 -0.07215339 0.07417233 0.07575484 0.015358365
0.059297413 -0.022823032 -0.13581595 0.009244943 0.101801336 -0.17370519 -0.090009786 0.014159659
-0.13586046 0.09652936 0.036222458 -0.005935679 -0.15578207 0.15036377 -0.07637062 -0.14503093
0.10682556 -0.016242675 0.111479394 -0.06683356 0.092037655 -0.07495983 -0.15461284 -0.12283986
0.083994694 -0.019516557 -0.11569689 -0.10204293 0.10538278 0.002614763 0.15798986 -0.07848819
-0.15677999 0.075684406 -0.15591519 0.018697435 0.011405766 0.007990256 -0.120556414 0.15923396
0.08953024 -0.016304718 -0.009815954 0.11843399 -0.11734335 -0.1727525 0.108626924 0.079496
-0.053839818 0.11476372 0.17460926 -0.14278248 -0.14185181 -0.09522453 0.14583716 0.008373433
0.01217272 0.013362273 0.16419041 -0.11628145 -0.11372965 -0.07909575 -0.06948714 0.16925503
-0.1205414 0.14439404 0.17598616 -0.16069938 0.14789248 -0.16398676 -0.13702354 0.08852278
-0.08594794 0.11107066 0.09306741 -0.14753021 -0.09125827 0.16016439 0.03674261 -0.16416481
0.031385705 0.07802274 -0.14915332 0.030661963 -0.09212579 -0.17400382 -0.060327183 0.056673203
-0.11537989 -0.13668285 -0.08842552 0.05108664 0.010660701 -0.0147135155 -0.11094525 0.1528532
0.09778342 -0.0028025063 0.16770613 0.14423782 -0.034866523 0.093430385 0.060035467 0.12516731
-0.13593413 0.17394765 -0.16652454 0.020219268 -0.0001656544 0.17415056 0.07937561 0.1619742
-0.12701094 0.08053749 0.08048892 0.0053854617 -0.049597017 0.13166675 -0.020201238 -0.08325467
-0.10071214 0.11037238 0.15343933 0.03874978 0.14369115 0.1591854 0.07674486 -0.08919707
-0.006562085 0.06458379 0.11358648 0.17483544 0.084619366 -0.16312745 -0.036268402 0.0125271715
-0.14930868 -0.12287799 0.097622 0.016781442 0.15284728 0.0061139707 0.097468376 -0.14275698
0.13815661 -0.073694594 0.0751202 0.07139401 -0.1170829 -0.14576457 0.11578667 -0.00016093384
0.010980088 -0.0067297355 -0.15563414 -0.042145804 -0.14775336 0.1346088 -0.084509164 0.11240367
-0.113824256 0.015683696 0.15741764 -0.036074642 -0.037906263 0.0206306 0.023704154 -0.10448996
0.01251615 0.0363391 0.063972026 0.14985403 0.04462752 0.06808189 -0.121897645 -0.13399889
-0.038046315 -0.16324873 -0.14039087 -0.02339869 0.0008897498 -0.11110066 -0.094403245 -0.08759667

transformer.layers.0.attn.out_proj.bias f4 [32]
00000000: 198a 3e3c 4553 af3d e164 d1bd afe6 c6bc
00000010: 6c1b afbd 3c9f dcbc c93e 87bc b6a5 34bb
00000020: bc1e f1bd 8db6 6c3c 95a1 633d e490 463c
00000030: 8f73 21be cab3 003e 86e6 2f3e cc54 03be
00000040: 1f89 22be 5154 21be 8646 f33d f40d 07bc
00000050: 9716 09be 62bd 20be ee88 abbd 13cf dc3c
00000060: 6f78 833d 8637 15be d7d7 ccbd eaad ebbc
00000070: c2a8 18be a0f2 b7bd e60d 003e 2399 4ebd
0.011629605 0.08560804 -0.10224319 -0.02427992 -0.08550152 -0.026931398 -0.01650943 -0.0027564592
-0.1177344 0.01444782 0.05557402 0.012119506 -0.15766738 0.12568584 0.17177781 -0.12825316
-0.1587262 -0.1575482 0.11878686 -0.008243073 -0.13387524 -0.15697244 -0.08375727 0.02695421
0.06419455 -0.14571962 -0.10002106 -0.028769452 -0.14908126 -0.08981824 0.12505302 -0.05043901

transformer.layers.0.ff_norm.weight f4 [32]
00000000: b602 803f 87f2 7f3f 0d04 803f 68ff 7f3f
00000010: 21f6 7f3f 7501 803f a5f4 7f3f f003 803f
00000020: 0ef2 7f3f 0804 803f 00f3 7f3f 63f4 7f3f
00000030: 7602 803f c5f5 7f3f 2205 803f ce05 803f
00000040: 1c03 803f e7f0 7f3f 1ef1 7f3f 1afd 7f3f
00000050: d8f3 7f3f 2707 803f 4506 803f 8506 803f
00000060: 1bf4 7f3f 0301 803f f3f7 7f3f a0f6 7f3f
00000070: 5907 803f 7701 803f 4e06 803f 01f4 7f3f
1.0000827 0.9997944 1.0001236 0.99999094 0.9998494 1.0000445 0.9998267 1.0001202
0.9997872 1.000123 0.99980164 0.9998228 1.0000751 0.9998439 1.0001566 1.0001771
1.0000949 0.9997696 0.9997729 0.9999558 0.9998145 1.0002183 1.0001913 1.000199
0.9998185 1.0000309 0.99987715 0.99985695 1.0002242 1.0000447 1.0001924 0.99981695

transformer.layers.0.ff.net.0.w1.weight f4 [64, 32]
00000000: a3d7 323e b6be 67bd 3ad5 b6bd 632e a3bc
00000010: 5004 173d d118 ddb9 e6d5 873d 60d9 31bd
00000020: 41aa 113e afd4 283e 86f7 9fbc afa4 c8bd
00000030: 5f99 343d f395 203e 8df5 09be 0e02 16bd
00000040: c4e3 b9bc 5632 d83d bff2 a7bd df37 8b3d
00000050: 7ce8 ebbc 3260 233e ada1 8ebd 0158 503d
00000060: 4cd0 87bd 6457 2fbe 0175 253e 5ed4 213e
00000070: 71ad c63d 9db5 fcbd 7956 513d 60ac d9bc
00000080: 1aa6 8b3d faf7 4ebd 4c91 033e 2f6c 1dbe
00000090: 8177 443b a6e6 e3bd 3f84 163e d732 333d
000000a0: 05f1 b5bd b49f f23d 1338 22be 6c6b 223e
000000b0: d4f8 493d f05a b4bd d3fd 23be 1d27 0abe
000000c0: d20b cdbd 0ff3 023d 1f37 dfbd d1f6 a83d
000000d0: 1b44 d03c d755 66bd 31fd cb3d 3f80 573d
000000e0: 9166 e6bd 61ae d1bd f5ab 203e e701 203e
000000f0: aa4c f1bd f8e8 a33d 6c04 143e dff3 a23c
00000100: a606 a83c f494 86bd 681b 0c3e b2eb 233e
00000110: 7d94 07be 1c72 273e 17f0 2b3e 77d9 ce3d
00000120: 6e83 11be b502 18be f1f7 09be 096d 83bc
00000130: ed05 06be c59d 243e 6a9f 24be 60f9 273d
00000140: 6bbb 983d 5882 6b3d c529 37bb 2509 64bc
00000150: 6734 96bd 75e6 bc3d ee52 af3d c99f 0f3c
00000160: d311 d43d be8f 34be a4af 6abd aa49 e1bd
00000170: c8aa 833c cca9 493d 4823 2f3e f4c1 4bbd
00000180: 7f7f 863d 781e 6b3d d9de 9b3d dca5 613c
00000190: ff33 1e3d 6ee6 2f3e ac09 8f3b 056e 0ebd
000001a0: 1ee8 e83c 6180 8abd c80d 0e3d 6cd0 1f3e
000001b0: d5af 0c3c 1654 013e 4899 00bd 6be3 babc
000001c0: b8fa 2a3e 794d 283e 0874 383d d0df 10be
000001d0: 5a34 efbd 2a08 cfbd 96f0 1fbe 75a9 d43d
000001e0: aac8 c1bd e284 0ebe 31c5 54bd 2da5 1b3d
000001f0: e731 a3bd 90eb 4d3c f2f7 14be 4a48 0c3c
00000200: 497a 553d c186 2dbe 3943 63bc 912a 62bc
00000210: a3aa 83bd b361 df3d 5b17 bf3c 228a a13c
00000220: 5319 6fbd bffa 9b3c 244b 42bd 4ab4 e83c
00000230: 821c 693d bd82 bfbd c2ab d33c 0583 54bd
00000240: 5f5b e9bc db78 953d 2f13 21be af3c 183e
00000250: 77e5 b3bd 944d bebd 88ad 5bbd ee58 27be
00000260: 5249 28bd 97c1 50bd 2192 033e cff2 16bd
00000270: 8b3d 18bd de72 de3d 7317 2e3e 4e38 303b
00000280: dc24 0ebd 0e00 063d 7dca 8abd dff2 88ba
00000290: 62a5 b43d a0f6 eb3d 736c 64bc db75 babd
000002a0: 7a27 2cbd a361 253d 0d8b efbd 24c9 6fbd
000002b0: 70fa 943d 1eb7 a23c 8573 b93d 2ee6 f23d
000002c0: a8da 193d ff60 c3bd fd11 09bb 0e38 8b3c
000002d0: 6a2e 393d c9e7 3bbd 0bd3 d2bc af0f 12be
000002e0: 7f71 fe3d 4e86 093e dc4d 5abd c992 aebd
000002f0: 75c5 2f3d d400 303e a532 263e 60cc b53d
00000300: 23a9 19bd 845f cbbd bd2f fabc 87b7 1cbe
00000310: cada 1b3e 1471 60bd fe35 cabc d12b 0c3e
00000320: 0b20 ed3d ebdc 933d 2cfd 993c 95c6 d13d
00000330: f537 7a3d 4296 c0bd 2adb febd 1076 113e
00000340: fe3a 073e 39ad 85bd 4f72 0abe 4583 923c
00000350: 5c75 32be e259 22be d5ba 07be eaff 883d
00000360: a0e2 bf3d a4ab de3d bb9e c4bd 4750 913c
00000370: 4cd3 df3c a3fc 8dbc e119 063e c2e7 0cbe
00000380: 18b8 ee3c 2a5b 2d3e a21f 9bbd 636e f3bd
00000390: 45ad 223e 8f2c 27be 836b 183e 9bf8 c9bd
000003a0: 77b8 6e3d 811b 063e eb97 003e 02b2 dd3c
000003b0: ef62 4dbb 2bfb 28bc 2aab e53d 2bd4 95bd
000003c0: eb96 db3d 7f71 d4bd 0e60 dbbc 1c5f 25be
000003d0: 1dbe e93d b640 c6bc d9aa ed3d 4c52 b03d
000003e0: 112a d3bc e23f 043e 7d2b e2bd b275 34be
000003f0: 3b81 f03d aa3d 01be 4156 1ebe f3bb 413d
0.17465071 -0.05657836 -0.089273885 -0.01991958 0.036869347 -0.00042170894 0.06632595 -0.043420196
0.14225103 0.16487382 -0.019527208 -0.09797036 0.04409158 0.15682201 -0.13472576 -0.036623053
-0.022691615 0.10556476 -0.08200597 0.06797766 -0.02879738 0.15954664 -0.06964431 0.050865177
-0.06631526 -0.1712318 0.16157915 0.15803668 0.0970105 -0.123393275 0.051107857 -0.026571453
0.06818791 -0.050529458 0.12848395 -0.153733 0.0029978456 -0.11127977 0.14698885 0.043749657
-0.088838615 0.11846867 -0.15841703 0.1586129 0.049309567 -0.088064075 -0.16014795 -0.13491483
-0.1001202 0.03197008 -0.108991854 0.082502015 0.0254231 -0.056234207 0.09960402 0.05261254
-0.11250032 -0.10238338 0.15690596 0.15625726 -0.11782201 0.0800342 0.14454812 0.019891677
0.020510983 -0.06571379 0.1368233 0.1600788 -0.13240238 0.16352123 0.16790806 0.10100072
-0.14210293 -0.14844783 -0.13473488 -0.016043203 -0.13088198 0.1607581 -0.16076437 0.041009307
0.07457622 0.057497352 -0.002794848 -0.013918196 -0.07334214 0.09223644 0.085607395 0.008766123
0.10354962 -0.17632958 -0.05729641 -0.110003784 0.016072646 0.049234197 0.17103302 -0.049745515
0.06567287 0.057402104 0.07610864 0.013772454 0.038623806 0.17177746 0.0043651666 -0.03477289
0.028430995 -0.067627676 0.03468111 0.1560685 0.0085868435 0.12629732 -0.03139618 -0.02281352
0.16697204 0.16435803 0.04503253 -0.14147878 -0.11679907 -0.10108979 -0.1561912 0.10383884
-0.09462102 -0.13917878 -0.05194587 0.03799932 -0.079685025 0.0125683695 -0.14547709 0.008562157
0.052118573 -0.16945936 -0.013871008 -0.013804094 -0.06429031 0.109073065 0.023326566 0.019719187
-0.05837376 0.019040463 -0.04743494 0.028406281 0.056911953 -0.09351108 0.025838736 -0.051882762
-0.028485952 0.07298442 -0.15729974 0.14866899 -0.08784001 -0.092921406 -0.05363229 -0.16342518
-0.04108555 -0.05096587 0.12848713 -0.036852654 -0.037168067 0.10861753 0.17001133 0.002688903
-0.03470312 0.032714896 -0.06776903 -0.0010448358 0.08820607 0.11521649 -0.013941872 -0.091045104
-0.042029835 0.040376317 -0.11696444 -0.058541432 0.0727433 0.019862708 0.09055237 0.118603095
0.037562042 -0.09539985 -0.0020915263 0.016994502 0.04521028 -0.045875344 -0.025735399 -0.14263795
0.124239914 0.1343014 -0.05329691 -0.08524091 0.04291292 0.17187816 0.16230257 0.08876872
-0.037514817 -0.099303275 -0.030540342 -0.15304385 0.1522018 -0.05479534 -0.024683949 0.1368859
0.11578377 0.07219871 0.01879748 0.10242955 0.06108852 -0.094036594 -0.12444146 0.14205194
0.13206097 -0.0652718 -0.13520168 0.01788486 -0.17427582 -0.158546 -0.13254865 0.06689437
0.09369397 0.108725816 -0.09600588 0.017738475 0.027322434 -0.01733238 0.1309581 -0.13760284
0.029140517 0.16929308 -0.07574393 -0.11886289 0.1588641 -0.16325592 0.14884762 -0.09861871
0.058281388 0.1309643 0.12557952 0.02706242 -0.0031339487 -0.010313789 0.112142876 -0.073158585
0.10722145 -0.1037321 -0.0267792 -0.16149563 0.11413214 -0.024200778 0.11604852 0.08609447
-0.025776895 0.12914994 -0.11043451 -0.17623022 0.11743399 -0.12621179 -0.15462591 0.047298383

transformer.layers.0.ff.net.0.w2.weight f4 [64, 32]
00000000: 11c3 d5bd 000c d9bd ca97 8dbd efc5 1bbe
00000010: 46a1 923d b817 edbc cfac d43c bfb6 07be
00000020: fc52 243e cbae 92bd b91b febc 17b2 1c3d
00000030: f346 173b 6b50 2dbe 4831 bc3d 8c3d ec3d
00000040: 54dc 0d3e 9909 01be 64da 743d f2ae 75bc
00000050: 6c31 a7bd b5db 09be ed1f ec3d 5278 183e
00000060: f0e9 b43a ef13 eabc d8da 533d c751 f93d
00000070: a8e5 16bd bc96 29be 7525 383d fa23 8e3b
00000080: 0952 f83b af26 81ba f402 823d 1495 353d
00000090: bb88 223e 7b1a 1bbe f45b 16be 633e a73c
000000a0: 05bd c23d e057 70bd a474 e23d 6416 d8bd
000000b0: 56a3 09bc 17eb 193e b8ae 11be 63d7 e53d
000000c0: 4a63 2ebe 633b 0fbc 1a9a eabc f8ad f7bd
000000d0: f161 0bbe 8e3f b1bd 070b f63d 40f6 c63a
000000e0: a8a0 80bd 86e8 033e b127 3fbd 1da7 073e
000000f0: 270f 15bd 5c9f 793d b91b 9b3d a522 473c
00000100: a798 743d 45df 753d 33d0 213e f462 ea3d
00000110: af13 f13d eddd c73d c1cd bbbd b514 1dbd
00000120: 92ca f13d 4d85 0a3e c8bd 2bbe 9dba 153e
00000130: beb4 bfbc 1565 993c c30e 1fbe 88e4 2e3e
00000140: b66c ebba 0a14 20bb 4521 0bbe beeb 283e
00000150: c781 833d fdd8 b9bd d424 8abd 431f 943d
00000160: 9417 b8bd 7cc0 803d 3d42 2fbe d8d4 a4bd
00000170: c8c4 4c3d 9f3c 283e cd22 cebd 1dba 0abe
00000180: 0981 0d3e fde4 1e3c 5d7b 15be d42c f73d
00000190: f795 89bd 5d06 353e 7e53 a23d 808e e33d
000001a0: 8d90 29be c8d4 32bd e324 5fbd cf0a c33d
000001b0: 9d31 113e 7677 2b3d 83cd 0ebe eb91 94bc
000001c0: ab19 13be 1713 083e 2605 19be f487 20bd
000001d0: 7f5f d8bd 76ea dc3c bebc 0ebe 61ef 9e3d
000001e0: 62b7 22be 79ba 22be b0cd 1e3e 6326 2f3e
000001f0: 6ed9 91bd 67ec 8d3c bcfc 95bd c17b 3d3d
00000200: 72f6 2f3e 96cf 893c ab72 16bd 2743 f0bc
00000210: 2800 f93d 7bcb aebd a785 1ebe 2e32 2fbc
00000220: 8630 d9bd 93c5 973d f5d6 173e 4c76 103e
00000230: f367 11bd 832c 35bd d856 d13d 62b1 d1bd
00000240: 3e58 c3bc 0fe3 91bd 5dff 1d3e b478 fcbc
00000250: 5d42 19be d143 c73d 90a7 7c3b 21da c2b9
00000260: c29b dc3c 61b3 493d 52b3 7dbc ca80 423d
00000270: 554b c03d 783e 6abd 7585 a83d 363a a1bd
00000280: ffc4 de3d bba8 a53d d1a8 433c 6fcb bcbc
00000290: fb50 af3c 7f2b 813c 5180 2f3d 7d7b df3d
000002a0: 5c35 cfba 7993 1d3e 713c 29be eef3 123d
000002b0: 6bcc 36bd 07d4 af3d 718a 383d 8b68 493d
000002c0: 6cd6 aabd df56 47bd 7336 cb3c fd37 b53c
000002d0: 1c10 e83d a07c a1bd f8f4 283d 5fad 02be
000002e0: 00d2 263e 5541 1dbe 610f 8c3d ccaa c8bd
000002f0: 5265 0e3d 226d af3d d8ee 8a3d c0c7 34be
00000300: 3d62 223e fca4 cd3d 3212 b7bd 8f0b a0bd
00000310: 3d67 9ebd 61b8 e5bd 9143 dbbd 4cd2 343d
00000320: 0f64 f23d a676 9c3d a444 b1bb 4a20 02be
00000330: 66c5 2cbe 492c 253e 58f1 093e eb7b 81bd
00000340: dea5 49bd f34d b83d 3511 2cbe a6d7 acbb
00000350: ec20 36bd 8c70 a1bd 2754 cd3d 06a6 043e
00000360: 6b15 38bc fba7 f8ba 75ca 21bd 9d83 4dbd
00000370: d58e f23d e1ba 053e c759 083e d9b3 453d
00000380: b675 3abd 91d9 283e be9e d73d 79a6 70bd
00000390: 3d25 b73d 63b3 cf3d e37d 2d3e e7fd 113e
000003a0: 9643 513d 0c70 cdbd 1632 f83d 2979 e13b
000003b0: db3b 093e 9eaf f6bd 5fdf afbd 9e4a 2ebe
000003c0: 442b ca3d c867 debd 02c5 f6bd 6df9 d9bd
000003d0: f1d3 6b3d 7a39 1b3e 400c 4dbc 9d46 febd
000003e0: d08b b53d 30de 563d f7f0 17be f76c 323e
000003f0: 9ea1 213e 2c18 213e 18c1 43bd 197a 903c
-0.104375966 -0.10597992 -0.06913717 -0.15212224 0.07159667 -0.028941974 0.025961308 -0.13253306
0.16047281 -0.07162245 -0.031019079 0.038255777 0.002308306 -0.16925208 0.09189087 0.11535177
0.1385358 -0.12601317 0.059778586 -0.0149953235 -0.08163723 -0.13462718 0.11529527 0.14889649
0.0013802629 -0.028573958 0.051722378 0.12173801 -0.03684011 -0.16561407 0.044957597 0.004337785
0.0075781387 -0.0009853448 0.063482195 0.044331625 0.15872471 -0.1514682 -0.14683515 0.02041549
0.09508709 -0.058677554 0.11057404 -0.10551146 -0.008400759 0.15031086 -0.14226806 0.112227224
-0.17030063 -0.008742186 -0.028637934 -0.12093729 -0.1361158 -0.086547 0.12013822 0.0015179589
-0.06280643 0.1288167 -0.046668712 0.13247342 -0.036391404 0.060942993 0.07573647 0.012154256
0.059715893 0.06002738 0.15802078 0.11444655 0.117713325 0.09759126 -0.09170104 -0.038349826
0.11806215 0.13527413 -0.16771615 0.14621969 -0.023401614 0.018724957 -0.15532975 0.17079365
-0.0017961476 -0.0024426007 -0.1358691 0.16496179 0.064212374 -0.0907459 -0.06745306 0.07232525
-0.08988872 0.062867135 -0.17115112 -0.08048409 0.049992353 0.16429375 -0.100652315 -0.13547559
0.13818754 0.00969815 -0.1459784 0.12069097 -0.06718057 0.17678209 0.07926081 0.11111164
-0.16559048 -0.043659955 -0.054478537 0.09523546 0.14179082 0.041861974 -0.13945584 -0.018135985
-0.1436526 0.13288532 -0.1494337 -0.039192155 -0.105650894 0.026967268 -0.13939187 0.07760502
-0.15890267 -0.15891446 0.15508151 0.17104487 -0.071215495 0.01732464 -0.07323596 0.0462606
0.17183855 0.016822618 -0.03673045 -0.029328896 0.12158233 -0.085349046 -0.15480672 -0.010693116
-0.10604958 0.07410731 0.14828093 0.14107627 -0.035499524 -0.044231903 0.10221642 -0.10238911
-0.023845788 -0.07123386 0.15429445 -0.030819274 -0.14966722 0.09729732 0.0038552023 -0.00037165082
0.02692974 0.049243335 -0.015484648 0.047486104 0.093893684 -0.05718848 0.0822858 -0.07872431
0.10877418 0.080888234 0.011942104 -0.023046223 0.02140092 0.01576781 0.04284698 0.109122254
-0.0015808749 0.15388288 -0.16526963 0.03587716 -0.044628542 0.08585363 0.045053903 0.049171966
-0.08341679 -0.04866683 0.024806237 0.022121424 0.113311976 -0.078850985 0.041249245 -0.12761448
0.16291046 -0.15356953 0.06838871 -0.09798202 0.034764595 0.08565737 0.06783837 -0.17654324
0.15857787 0.10041234 -0.08939017 -0.078147046 -0.07734535 -0.11216808 -0.10706247 0.044145867
0.11835491 0.07639818 -0.005409794 -0.1270763 -0.16872177 0.16130175 0.13470972 -0.063224636
-0.04923045 0.08999243 -0.16803439 -0.0052747307 -0.04446499 -0.07882795 0.100258164 0.12953958
-0.011235575 -0.001897096 -0.03949972 -0.050174344 0.11843649 0.1305957 0.13315497 0.04826722
-0.045522414 0.16489245 0.105283245 -0.05875251 0.089426495 0.10141637 0.16942553 0.14257012
0.051089846 -0.10031137 0.12118928 0.0068808985 0.1340174 -0.12045215 -0.085875265 -0.17020652
0.098715335 -0.108596385 -0.12049295 -0.10643277 0.05757517 0.15158644 -0.012515128 -0.12415812
0.08864558 0.05245799 -0.14838015 0.1742438 0.15784308 0.15731877 -0.04779157 0.017636346
