tmp/src/test/mar_init/mar_12_mar_init.pth (torch, 291149 bytes, 72 tensors)

transformer.proj_in.weight f4 [32, 16]
0	0x3bf4436e	0.0074543273
1	0x3e5a0291	0.21290042
2	0x3e34fea8	0.17675269
3	0x3e47b345	0.1950198
4	0xbe0aa448	-0.13539231
5	0x3bfe62fd	0.007763265
6	0x3b00c267	0.0019647123
7	0x3db1fc51	0.08690704
8	0xbb2fd281	-0.002682835
9	0x3e0808ea	0.1328465
10	0x3d4860fe	0.048920624
11	0x3e3cebdd	0.1844935
12	0xbdcf3b21	-0.101187
13	0x3d8e6729	0.0695327
14	0xbda073b3	-0.07834568
15	0xbdd8de1f	-0.10589241
16	0x3e75a35c	0.23988098
17	0xbbe414c2	-0.0069604823
18	0xbe6a2927	-0.22867261
19	0x3de42318	0.11139506
20	0x3d67588b	0.056480926
21	0xbd3eca98	-0.046579927
22	0xbe5f7d77	-0.21825205
23	0x3e7f4e6d	0.24932261
24	0x3e1f298c	0.15543193
25	0x3d0a781d	0.033805955
26	0x3e6b2884	0.22964674
27	0x3e48ec50	0.19621396
28	0x3d81e92c	0.06343302
29	0x3dde38f2	0.10850705
30	0xbe43e5b5	-0.19130595
31	0x3d40f2bc	0.04710649
32	0x3e3f552e	0.18684837
33	0xbde93053	-0.1138617
34	0x3d082367	0.033236887
35	0xbca12bff	-0.0196743
36	0xbe7f4cde	-0.24931666
37	0x3e796044	0.24353129
38	0x3e31c4b5	0.17360194
39	0xbd89bba5	-0.067252435
40	0x3e5c46d1	0.2151139
41	0xbdddfafe	-0.108388886
42	0xbe0bd5aa	-0.13655725
43	0x3cf9ca07	0.030491842
44	0x3e04d01c	0.12970012
45	0x3e40b691	0.18819644
46	0xbe5aaa9b	-0.21354143
47	0xbde40d19	-0.11135311
48	0x3e1c0525	0.15236337
49	0xbe25785c	-0.16159195
50	0xbc37e8a3	-0.0112248985
51	0x3d813280	0.0630846
52	0xbe793d1c	-0.24339718
53	0xbdb79185	-0.089633025
54	0x3cb16795	0.021655837
55	0x3e1b9604	0.15193945
56	0x3dcefd20	0.101068735
57	0xbe4ccc85	-0.19999893
58	0xbe7ec903	-0.24881367
59	0xbd56991b	-0.052392107
60	0xbe289be4	-0.16465718
61	0x3e7b589d	0.24545522
62	0x3e306834	0.1722725
63	0x3e12e097	0.14343487
64	0x3e78db4f	0.2430241
65	0x3e337cb0	0.17528033
66	0x3e593d3d	0.21214767
67	0x3d089484	0.03334476
68	0x3de3c537	0.111216
69	0x3d21ddd3	0.03951819
70	0x3cdc3f0a	0.026885528
71	0xbe1f04bc	-0.1552915
72	0x3d335a9d	0.043787587
73	0xbe320558	-0.17384851
74	0xbe4f3221	-0.20233966
75	0xbd8cc43c	-0.06873366
76	0xbdff1781	-0.12455655
77	0xbd867c1c	-0.06566641
78	0x3caeea5b	0.021351984
79	0x3cc2e18a	0.023789186
80	0xbe47055b	-0.19435637
81	0xbe6930a5	-0.22772463
82	0xbe317099	-0.17328109
83	0xbe2299ed	-0.1587903
84	0x3e7dd115	0.2478679
85	0x3ddc48a2	0.10756041
86	0x3db02db6	0.08602469
87	0x3dac7c00	0.084220886
88	0x3e1090fe	0.1411781
89	0xbe1f81ec	-0.15576905
90	0xbe616f18	-0.22015035
91	0x3e69f44c	0.22847098
92	0x3e4043f1	0.18775918
93	0xbe3ef2e8	-0.18647349
94	0x3db127e7	0.08650189
95	0x3d8b7c42	0.0681081
96	0xbddb5831	-0.107101806
97	0xbd3f58f1	-0.04671568
98	0xbbc25ced	-0.005931488
99	0x3e213a95	0.15745004
100	0xbd83e288	-0.06439692
101	0xbd813598	-0.0630905
102	0x3df2607d	0.1183481
103	0x3e416389	0.18885626
104	0xbcc99c99	-0.024610804
105	0x3b268521	0.002540894
106	0xbc92ac0a	-0.0179043
107	0xbcee3efd	-0.02908277
108	0xbddb0616	-0.1069452
109	0x3ddabaa3	0.106801294
110	0x3e0f70af	0.14007829
111	0x3e6ed326	0.23322734
112	0xbe7ed0d2	-0.24884346
113	0x3e2e0f9c	0.16998142
114	0xbdf4d6bd	-0.119550206
115	0xbdad244a	-0.08454187
116	0xbe71e88b	-0.23623864
117	0x3e087a3e	0.13327882
118	0xbdf2ecd5	-0.118615784
119	0xbd1f3486	-0.03886845
120	0x3e4066c0	0.18789196
121	0x3e2070fb	0.15668099
122	0x3e68c725	0.22732218
123	0x3c17381a	0.009229684
124	0xbdf19967	-0.11796837
125	0x3e3f4f39	0.18682565
126	0xbe22272d	-0.15835257
127	0x3e417a17	0.1889423
128	0xbdd7fbcc	-0.10546073
129	0xbe4ca8c5	-0.19986255
130	0x3e3795b6	0.17928204
131	0xbbd932a2	-0.0066283504
132	0xbd95e12b	-0.07318338
133	0x3d54bb50	0.051936448
134	0x3e4018eb	0.18759505
135	0x3c3ac6dd	0.011399952
136	0x3d54ff3b	0.05200122
137	0xbdc2f972	-0.09520234
138	0xbd4d098c	-0.050057933
139	0x3d7bf164	0.061509505
140	0x3e086884	0.1332112
141	0xbd928b24	-0.07155445
142	0xbe57621d	-0.21033521
143	0x3e533b14	0.20628005
144	0xbcde0d53	-0.027105963
145	0xbab1ee71	-0.0013575089
146	0x3c1d43ea	0.0095987115
147	0xbdf3db26	-0.119070336
148	0x3e4f99dc	0.20273536
149	0xbd9d3b27	-0.07677298
150	0xbe5e4d28	-0.2170912
151	0x3e55b672	0.20870379
152	0xbdc08049	-0.093994685
153	0xbe26f114	-0.16302902
154	0xbe6b34f9	-0.22969426
155	0xbe7858b2	-0.24252585
156	0x3dad5404	0.0846329
157	0x3df06918	0.11738795
158	0x3d906a51	0.07051528
159	0xbdf36bb7	-0.11885779
160	0xbe03e1e5	-0.1287914
161	0x3e766a03	0.24063878
162	0x3e22e7e4	0.15908772
163	0xbdfbdf3b	-0.12298437
164	0x3d3f2ad6	0.04667171
165	0x3e37b497	0.17939983
166	0xbe68ca5e	-0.22733447
167	0x3e001188	0.12506688
168	0xbe6051d1	-0.2190621
169	0x3e24be8b	0.16088311
170	0x3e52301a	0.20526162
171	0x3da3423b	0.07971617
172	0x3e75059e	0.23927924
173	0x3e29c684	0.16579634
174	0x3d308c14	0.04310234
175	0xbdd6554f	-0.1046549
176	0xbe1f89c7	-0.15579902
177	0x3e530848	0.20608628
178	0xbde8468a	-0.11341579
179	0x3d368927	0.044564392
180	0x3d3c76a2	0.046011575
181	0xbda18a75	-0.07887737
182	0xbe63c8f4	-0.22244626
183	0x3e021021	0.12701465
184	0x3e735619	0.23763312
185	0xbe068ba6	-0.13139209
186	0xbde674e8	-0.11252767
187	0xbe44b860	-0.19210958
188	0xbe55ed46	-0.20891294
189	0x3c160f7c	0.009158965
190	0x3e2bf6b3	0.16793327
191	0xbbbb27c6	-0.0057115285
192	0x3e281a3b	0.16416256
193	0xbdff75b6	-0.124736235
194	0xbdfd8ceb	-0.123803936
195	0xbcd36e0a	-0.025809307
196	0x3dc3d27c	0.09561631
197	0x3d2a4cc6	0.041577123
198	0xbe6455b1	-0.22298314
199	0xbe66783f	-0.22506808
200	0xbc81f499	-0.015863704
201	0x3e74535c	0.23859924
202	0x3e667dd6	0.2250894
203	0xbc85ec42	-0.016348008
204	0x3cc28eed	0.023749793
205	0xbcf47ec0	-0.029845595
206	0xbe47bed2	-0.19506386
207	0x3e03ec47	0.12883101
208	0x3e1c3f6b	0.15258567
209	0xbe0b5bc3	-0.13609223
210	0x3dabbd1a	0.08385678
211	0x3d874971	0.06605805
212	0xbe5991ea	-0.21247068
213	0xbd9d36a9	-0.07676441
214	0x3e0f9f5d	0.14025636
215	0x3d7d658c	0.06186442
216	0x3e366014	0.17810088
217	0xbd778aa8	-0.060434967
218	0xbe6b17db	-0.22958319
219	0xbd6da031	-0.0580141
220	0x3e6fcba6	0.2341753
221	0x3e5a2b1b	0.21305506
222	0xbdd58dd8	-0.10427445
223	0xbe429a78	-0.19004238
224	0x3ac76039	0.0015211172
225	0x3df4ac7c	0.11946961
226	0xbe43f23b	-0.19135372
227	0xbd503892	-0.0508352
228	0xbe458f4f	-0.19292949
229	0x3c113deb	0.00886486
230	0x3e32b454	0.17451602
231	0xbd3df3cc	-0.04637508
232	0xbdd1978d	-0.10233984
233	0xbe104cdc	-0.1409182
234	0xbd91a8d0	-0.071122766
235	0x3c32261f	0.010873347
236	0x3e0414e9	0.12898602
237	0xbe4008e6	-0.18753394
238	0xbe490ae4	-0.1963306
239	0xbe190a3d	-0.14945312
240	0xbdc0d837	-0.0941624
241	0xbdba56d7	-0.09098595
242	0xbdb55831	-0.08854712
243	0x3e55511e	0.20831725
244	0xbd7d0d3e	-0.061780207
245	0xbd825e11	-0.06365598
246	0x3dc659de	0.096851096
247	0x3e637808	0.22213757
248	0x3e522f49	0.2052585
249	0xbe56fa8b	-0.20994012
250	0x3d05798a	0.03258661
251	0xbe15c636	-0.14626393
252	0x3e5e3635	0.21700366
253	0x3e64fb0e	0.22361395
254	0x3df2eccc	0.11861572
255	0x3d925c58	0.071465194

transformer.proj_in.bias f4 [32]
0	0x3e69c17b	0.22827713
1	0x3dd1fa83	0.102528594
2	0x3cc52e03	0.024069792
3	0xbe366c71	-0.17814805
4	0xbe5eb242	-0.21747687
5	0x3e1734f6	0.14766297
6	0x3e14ddee	0.14537784
7	0xbc7124ad	-0.014718217
8	0x3e13ba0a	0.14426437
9	0x3d87a7c7	0.06623798
10	0xbe5961a3	-0.21228652
11	0xbe159fb5	-0.14611705
12	0x3de37101	0.11105538
13	0xbc17f7be	-0.009275375
14	0x3d9e99b3	0.077441595
15	0x3ddb3acd	0.10704575
16	0x3e5b75b2	0.21431616
17	0xbdbdaeb7	-0.0926184
18	0xbe4987df	-0.19680737
19	0x3d097fb3	0.03356905
20	0x3d04f87f	0.032463547
21	0x3d2f3170	0.042771757
22	0xbe13c607	-0.1443101
23	0xbe34f2e9	-0.17670788
24	0x3e7ad335	0.24494632
25	0x3de00207	0.10937887
26	0x3e78b9d2	0.24289635
27	0x3e57f6e4	0.21090275
28	0x3df602f7	0.12012284
29	0xbe46dde9	-0.1942059
30	0x3d2d330a	0.042285003
31	0xbe278da1	-0.16362621

transformer.layers.0.attn_norm.weight f4 [32]
0	0x3f800004	1.0000005
1	0x3f800000	1.0
2	0x3f800001	1.0000001
3	0x3f800011	1.000002
4	0x3f7fffec	0.9999988
5	0x3f7fffec	0.9999988
6	0x3f800007	1.0000008
7	0x3f7ffff8	0.9999995
8	0x3f7fffed	0.99999887
9	0x3f7fffee	0.9999989
10	0x3f800002	1.0000002
11	0x3f80000b	1.0000013
12	0x3f7ffff4	0.9999993
13	0x3f7fffff	0.99999994
14	0x3f7ffff8	0.9999995
15	0x3f800008	1.000001
16	0x3f7ffff6	0.9999994
17	0x3f7ffff7	0.99999946
18	0x3f7ffff4	0.9999993
19	0x3f800007	1.0000008
20	0x3f800000	1.0
21	0x3f7fffe3	0.9999983
22	0x3f7ffff2	0.99999917
23	0x3f800004	1.0000005
24	0x3f800001	1.0000001
25	0x3f800007	1.0000008
26	0x3f800006	1.0000007
27	0x3f7ffffd	0.9999998
28	0x3f7ffff0	0.99999905
29	0x3f80000f	1.0000018
30	0x3f7fffeb	0.99999875
31	0x3f800005	1.0000006

transformer.layers.0.attn.q_proj.weight f4 [32, 32]
0	0x3e2398d0	0.15976262
1	0x3d07756f	0.033070978
2	0x3e28357c	0.16426653
3	0x3da5c1cb	0.08093604
4	0xbd0c75c5	-0.034292
5	0xbdf47541	-0.11936427
6	0xbca38f4e	-0.019965794
7	0xbdc75288	-0.097325385
8	0xbe1fa500	-0.15590286
9	0xbe2afdbc	-0.16698354
10	0x3d379de3	0.044828307
11	0x3d9a3a38	0.075306356
12	0xbe064830	-0.13113475
13	0x3e18c4be	0.14918801
14	0x3e2cff3d	0.1689424
15	0x3cb6afbd	0.022300595
16	0x3e323cda	0.17406026
17	0x3e2780b2	0.16357687
18	0xbdd1e8a0	-0.10249448
19	0x3dace949	0.08442933
20	0xbe0c7ae7	-0.13718759
21	0xbd1d15ac	-0.038350746
22	0xbe0b808a	-0.13623253
23	0xbe11a679	-0.1422366
24	0x3d98a29d	0.07452891
25	0xbdb53a95	-0.08849064
26	0xbd0f4781	-0.0349803
27	0x3cdcfd87	0.02697636
28	0xbdde22e1	-0.108464964
29	0x3d6da4c4	0.05801846
30	0xbba87d1a	-0.0051418664
31	0xbd3f0a8d	-0.04664092
32	0x3dd72f6e	0.10507093
33	0xbd9b351f	-0.075784914
34	0x3dcae81e	0.09907554
35	0xbd6ea588	-0.05826333
36	0xbdd20437	-0.1025471
37	0x3d5ac72f	0.053412613
38	0xbe0beb7c	-0.13664049
39	0x3e0b0f3b	0.13580029
40	0x3ddedb17	0.10881632
41	0xbdd109d0	-0.1020695
42	0xbe27bdcd	-0.16380997
43	0xbd4f14fd	-0.050557125
44	0x3e150f15	0.14556535
45	0xbe34c935	-0.1765488
46	0xbde91ffd	-0.113830544
47	0x3e0ee7a8	0.13955557
48	0xbe1db2a6	-0.1540018
49	0xbdfbe9ae	-0.1230043
50	0x3de8e6b8	0.11372131
51	0xbd43bc86	-0.04778721
52	0xbd3b1468	-0.045673758
53	0x3ce0454b	0.027376791
54	0x3d1bd633	0.038046073
55	0x3de01031	0.10940588
56	0xbe242d11	-0.16032816
57	0xbd2a68a2	-0.041603692
58	0xbdde7d49	-0.1086374
59	0x3dc496fe	0.09599112
60	0x3da46ed6	0.08028953
61	0x3db19c3c	0.086723775
62	0x3c08a867	0.0083409315
63	0x3ded8523	0.115976594
64	0x3c182f78	0.009288661
65	0x3d87267d	0.06599138
66	0xbe07df63	-0.13268809
67	0x3d9347ad	0.071914054
68	0xbe2690f3	-0.16266231
69	0x3d2136ff	0.03935909
70	0x3d6063c2	0.054782636
71	0x3d5e7070	0.054306448
72	0xbd1cf94f	-0.038323697
73	0xbdc0ceff	-0.09414481
74	0xbcbe6731	-0.023242565
75	0x3ce4965e	0.027903732
76	0xbd579790	-0.052634776
77	0x3e1d4cb3	0.1536129
78	0x3d0ff1d5	0.03514274
79	0x3d57f246	0.052721284
80	0x3ddcf3d9	0.10788698
81	0xbcd064aa	-0.025438625
82	0xbd0c3b4d	-0.03423624
83	0x3e3217f8	0.17391956
84	0x3dcd3440	0.100197315
85	0xbd369424	-0.04457487
86	0x3e10a562	0.14125589
87	0xbe324525	-0.17409189
88	0xbdfe777e	-0.12425135
89	0xbcaf571f	-0.021403847
90	0xbd8cd1b4	-0.06875935
91	0x3bb0248a	0.0053754495
92	0x3c763718	0.015027784
93	0xbd0fd7d2	-0.03511793
94	0x3dd977ad	0.106185295
95	0xbcbbb020	-0.022911131
96	0xbd8b871e	-0.06812881
97	0xbd9f2653	-0.07770982
98	0xbde3d914	-0.11125389
99	0xbe1ea6a3	-0.15493254
100	0x3e23ae20	0.15984392
101	0x3e257f48	0.16161835
102	0xbdef82d5	-0.11694876
103	0xbcdff041	-0.027336242
104	0x3dbff705	0.09373287
105	0xbd9369d6	-0.07197921
106	0xbd0268e6	-0.03183832
107	0xbc4d2922	-0.012522014
108	0xbcbad9ef	-0.022808997
109	0x3d64ca67	0.05585709
110	0xbd63313f	-0.055466887
111	0x3e0c22a4	0.1368509
112	0x3e33129b	0.17487566
113	0xbd9d31fe	-0.07675551
114	0xbd83f128	-0.06442481
115	0x3bafe95c	0.005368395
116	0x3d0ccb72	0.034373708
117	0x3e3176dc	0.17330498
118	0xbda6bcb2	-0.081414595
119	0x3dc4c8fa	0.09608646
120	0x3d52d072	0.05146832
121	0x3d62ba19	0.055353258
122	0x3d2e1e4b	0.04250936
123	0x3e03d05e	0.12872455
124	0x3d2f62a8	0.042818695
125	0xbddd6f7b	-0.10812279
126	0xbe0e07ae	-0.13870117
127	0xbd92beb8	-0.07165283
128	0x3e1f1141	0.15533926
129	0x3d28cfe8	0.0412139
130	0xbe049514	-0.12947494
131	0xbe06c8ad	-0.13162489
132	0x3dbc3592	0.09189905
133	0xbdfd1aa9	-0.12358601
134	0x3d8a785f	0.0676124
135	0xbc378744	-0.011201683
136	0xbc7a1f94	-0.015266318
137	0x3c901737	0.017589195
138	0x3c90194d	0.01759019
139	0x3c110595	0.0088514285
140	0xbe04afc1	-0.1295767
141	0x3d99cb4c	0.07509479
142	0xbdc61261	-0.09671474
143	0x3d8af2d5	0.06784598
144	0xbba1e27b	-0.0049403287
145	0xbdc9bf86	-0.09850983
146	0xbb7afd9e	-0.003829814
147	0x3de1c000	0.11022949
148	0xbdd457b8	-0.103682935
149	0x3cd47a22	0.025937144
150	0xbc3cd834	-0.011526156
151	0xbc941bfe	-0.018079754
152	0x3d48cf80	0.049026012
153	0xbdd4b7ef	-0.10386645
154	0xbaf8933b	-0.0018964777
155	0xbddc7e0e	-0.107662305
156	0x3e1b7535	0.1518143
157	0x3d5243d9	0.051334236
158	0xbe07fce1	-0.1328006
159	0x3e30bcca	0.17259517
160	0x3e15db02	0.14634326
161	0x3e23a82d	0.15982123
162	0x3c3732c8	0.011181541
163	0x3dca8215	0.098880924
164	0x3c1a05d6	0.009400805
165	0xbdf56bb7	-0.119834356
166	0xbe30f5bc	-0.1728124
167	0xbdee14f8	-0.11625093
168	0x3bebdfb4	0.0071982983
169	0x3da23239	0.079197355
170	0x3d347fd8	0.044067234
171	0xbe25d7b9	-0.16195573
172	0xbe145788	-0.14486516
173	0x3d76e4f5	0.060276944
174	0xbe0ddb65	-0.13853224
175	0x3e2b0117	0.16699634
176	0xbe075f0e	-0.13219854
177	0x3e2c6df8	0.16838825
178	0x3cc11e30	0.023573965
179	0xbdbd2e94	-0.092374
180	0x3dfea986	0.12434678
181	0xbd0f50eb	-0.03498928
182	0xbcc30625	-0.02380664
183	0x3d4d4afd	0.050120343
184	0x3ccfdc80	0.025373697
185	0x3dd3c149	0.103396006
186	0xbda9ed4d	-0.08297215
187	0x3cb9b1b6	0.022667747
188	0x3e05892e	0.13040611
189	0x3e0fcf83	0.14044003
190	0xbd1a2ebc	-0.037642226
191	0xbdbe0930	-0.09279096
192	0x3dd5a942	0.10432674
193	0x3d9bad0a	0.07601364
194	0x3c92e791	0.017932685
195	0x3e1a9d6c	0.15099114
196	0xbde3f0a4	-0.11129883
197	0x3e0c46b9	0.13698854
198	0x3dc7b8c6	0.097520396
199	0xbe0ebd8e	-0.13939497
200	0xbe135781	-0.14388849
201	0xbcd75bda	-0.026288915
202	0x3d5c30ba	0.053757407
203	0xbdf68e15	-0.12038819
204	0xbd0f4020	-0.034973264
205	0xbcce737b	-0.02520155
206	0xbd7121e9	-0.05887023
207	0xbe31f509	-0.1737863
208	0xbe254719	-0.16140403
209	0x3d3a4843	0.04547907
210	0xbcc2cd4e	-0.023779538
211	0x3e2321f8	0.15930927
212	0xbe1b7008	-0.15179455
213	0xbd32a928	-0.04361835
214	0xbcb812b3	-0.022469854
215	0x3e1146ea	0.14187208
216	0x3dbcb266	0.09213714
217	0x3cb37cc4	0.021910079
218	0xbe15eeac	-0.14641827
219	0x3d7d1e6f	0.0617966
220	0x39587a66	0.00020644962
221	0xbda783d3	-0.0817944
222	0x3cc2d3a3	0.023782557
223	0xbd5d5a59	-0.05404124
224	0x3c99823a	0.018738855
225	0x3dcc4b0e	0.09975253
226	0xbd8be1e4	-0.068301946
227	0xbe32e71e	-0.17470977
228	0xbdeceed0	-0.11568987
229	0x3d843424	0.064552575
230	0xbded79fe	-0.11595534
231	0xbdaf3195	-0.08554379
232	0xbab5530c	-0.0013833954
233	0xbdd78d7a	-0.105250314
234	0xbc091de7	-0.008368946
235	0xbe282bcf	-0.16422962
236	0xbdb84ac5	-0.08998636
237	0x3e277d7c	0.16356462
238	0xbda42743	-0.08015301
239	0x3d0452e1	0.032305602
240	0xbd948414	-0.072517544
241	0x3d38b8ee	0.045098238
242	0x3d428fb4	0.047500327
243	0x3e102adf	0.14078854
244	0xbd77451b	-0.06036864
245	0xbdc1aaf3	-0.09456434
246	0xbe02b054	-0.12762576
247	0xbdb074fa	-0.086160615
248	0x3ce8add1	0.028403195
249	0x3cb1eeb5	0.02172027
250	0xbe1e47c1	-0.1545706
251	0xbd54f0e5	-0.051987547
252	0x3d993172	0.07480134
253	0x3d34a7f8	0.0441055
254	0xbd04bba5	-0.032405514
255	0x3e152077	0.14563166

transformer.layers.0.attn.k_proj.weight f4 [32, 32]
0	0x3d90e36e	0.07074629
1	0xbdec6f44	-0.1154466
2	0xbde9526b	-0.11392673
3	0xbe1d025a	-0.15332928
4	0x3dac8a97	0.084248714
5	0xbe1edb4b	-0.15513341
6	0xbe1d0a0c	-0.15335864
7	0x3d65aee9	0.05607501
8	0x3e1c6b46	0.15275297
9	0xbdecbd61	-0.11559559
10	0xbdb11fa6	-0.086486146
11	0xbd5b15ee	-0.05348771
12	0x3dcadbb2	0.09905185
13	0x3e1bf92f	0.15231775
14	0x3e03f761	0.12887336
15	0xbcc655d1	-0.024210842
16	0x3cd4e902	0.025990013
17	0xbcfd73af	-0.030938951
18	0xbca91a48	-0.020642415
19	0xbe043b26	-0.12913188
20	0xbd2d0813	-0.04224403
21	0x3c88e554	0.016710915
22	0x39d70270	0.00041009812
23	0xbe0e8628	-0.13918364
24	0xbe15eac7	-0.14640342
25	0xba391971	-0.0007060981
26	0x3dcd8ef5	0.100370325
27	0xbc725942	-0.0147917885
28	0xbd695a57	-0.05697092
29	0x3def5f13	0.11688056
30	0xbd1cb007	-0.03825381
31	0x3e0efecc	0.13964385
32	0xbd388346	-0.045047067
33	0xbe2fd65d	-0.17171617
34	0x3bfd3238	0.007726934
35	0x3d825fda	0.063659385
36	0xbddfdf93	-0.10931315
37	0xbdca0408	-0.0986405
38	0xbdcc2d44	-0.09969571
39	0x3df30d9d	0.11867831
40	0x3dde6def	0.10860812
41	0xbdf2f379	-0.11862845
42	0xbceacc36	-0.028661828
43	0x3e05e91e	0.13077208
44	0xbdc7091a	-0.09718533
45	0xbdcf3edc	-0.10119411
46	0x3e24b683	0.16085248
47	0xbe1cdeeb	-0.15319411
48	0xbdbbe879	-0.091752
49	0xbddd21f2	-0.1079749
50	0x3dbaf020	0.091278315
51	0xbce45b26	-0.027875494
52	0x3b7f4055	0.0038948257
53	0x3e146291	0.14490725
54	0x3e12b304	0.14326102
55	0xbd5f0723	-0.054450165
56	0x3e0f8002	0.14013675
57	0xbdba99c2	-0.09111358
58	0x3b65183c	0.0034957072
59	0xbe166503	-0.1468697
60	0xbc3b45c8	-0.011430211
61	0xbdd48568	-0.10377008
62	0xbdaff21f	-0.08591103
63	0xbe1bcfe2	-0.1521602
64	0x3dc692df	0.09695982
65	0x3e2a855a	0.16652432
66	0x3df3c02d	0.11901889
67	0xbe1f49d0	-0.15555501
68	0xbe043a79	-0.1291293
69	0xbdcdf8a1	-0.10057188
70	0x3df22c4b	0.118248545
71	0xbd40cdf2	-0.047071405
72	0x3d75a252	0.059969254
73	0xbc90dd4a	-0.017683644
74	0x3dc94aef	0.098287456
75	0xbdecb5da	-0.11558123
76	0xbcc5d72d	-0.024150455
77	0xbdde9bb8	-0.10869545
78	0x3d5aa83e	0.053383105
79	0x3e118e27	0.14214383
80	0xbdfe3684	-0.12412742
81	0xbe328d5b	-0.17436735
82	0x3cd33efe	0.025786873
83	0x3deb50f4	0.1149005
84	0xbd3c37d0	-0.045951664
85	0x3dac3a01	0.08409501
86	0xba7be728	-0.0009609335
87	0xbd367165	-0.044541735
88	0x3d8483e2	0.06470467
89	0x3dbe3f47	0.09289413
90	0x3e2a6703	0.16640858
91	0xbd306150	-0.043061554
92	0xbe29bf9a	-0.16576996
93	0x3dea05dc	0.11426899
94	0x3b93008c	0.004486149
95	0x3d1710d2	0.036881275
96	0x3d244abd	0.04011034
97	0xbdc01470	-0.09378898
98	0x3d45bbd9	0.04827485
99	0xbe10e966	-0.14151534
100	0xbdb7d59b	-0.08976289
101	0x3baeca7d	0.005334197
102	0x3e124735	0.14284976
103	0xbdea110d	-0.114290334
104	0x3c8790eb	0.016548594
105	0x3cd9c2da	0.02658217
106	0xbe054fcb	-0.1301872
107	0xbd182daa	-0.037152924
108	0xbe2c5d68	-0.16832507
109	0xbda9423a	-0.08264585
110	0xbca308ca	-0.019901652
111	0xbd9ee4de	-0.07758497
112	0xbd65118a	-0.05592493
113	0x3e0148a7	0.12625371
114	0xbd8704fa	-0.06592746
115	0xbd154181	-0.036439423
116	0xbd6335b4	-0.055471137
117	0xbdbccfff	-0.092193596
118	0xbdc6b9d3	-0.09703412
119	0xbc83288a	-0.016010541
120	0x3df78cdd	0.120874144
121	0xbdd0f3c6	-0.10202746
122	0xbe0d58b5	-0.1380337
123	0x3de33a98	0.1109516
124	0xbdc066ab	-0.09394582
125	0x3b73e090	0.0037212707
126	0xbcf9e7ff	-0.030506132
127	0x3dcb8dc3	0.09939148
128	0x3e133c93	0.14378576
129	0x3e076473	0.13221912
130	0xbd9b3a77	-0.07579511
131	0x3c3f51c0	0.011677206
132	0xbe1c136c	-0.15241784
133	0xbe0f2486	-0.13978776
134	0xbe0ec761	-0.13943245
135	0x3d9bcabb	0.07607027
136	0x3d84df2b	0.064878784
137	0x3d95a6f7	0.07307237
138	0x3dd41d27	0.10357123
139	0x3e2d5435	0.16926654
140	0x3dbb7249	0.091526575
141	0xbcf5ffc5	-0.030029187
142	0xbd6e3170	-0.058152616
143	0xbc3ffa4e	-0.011717392
144	0x3ddafe99	0.10693092
145	0x3d9eb197	0.07748716
146	0x3e0f53b1	0.1399677
147	0xbe2b1c09	-0.16709913
148	0x3d76f1ac	0.06028907
149	0x3e1c3d43	0.15257744
150	0x3e150312	0.14551952
151	0x3d2c4629	0.042059097
152	0xbd7d7134	-0.061875537
153	0xbd4a805e	-0.049438827
154	0xbd728151	-0.059205357
155	0xbdb57e7a	-0.08862014
156	0xbb838a78	-0.0040143095
157	0xbcae9de2	-0.021315519
158	0xbd1e6337	-0.038668837
159	0xbd9181dc	-0.07104847
160	0x3dc616af	0.09672295
161	0xbe0e0527	-0.13869153
162	0x3dcc4516	0.099741146
163	0x3dfae619	0.12250919
164	0xbdb270d4	-0.087129265
165	0x3c0ee9e3	0.008722755
166	0x3d12c67a	0.035833813
167	0x3e1a13af	0.15046571
168	0x3e17d5ae	0.14827606
169	0xbdca9d19	-0.09893245
170	0x3de06193	0.10956111
171	0xbdf460da	-0.119325355
172	0xbd57efa3	-0.05271877
173	0xbdd837ed	-0.10557542
174	0xbddca41b	-0.10773488
175	0x3d5e0c6b	0.05421106
176	0xbda0c15b	-0.0784938
177	0xbe055c68	-0.13023531
178	0xbd503700	-0.050833702
179	0xbd130fcf	-0.035903748
180	0xbe1b2b2f	-0.15153192
181	0xbcb10f8e	-0.021613862
182	0xbdfbc7fd	-0.12294004
183	0x3e338cce	0.17534181
184	0x3e23d7bf	0.1600027
185	0xbe33f788	-0.17574894
186	0xbdc6261f	-0.0967524
187	0xbb507d8f	-0.003181312
188	0xbe29f742	-0.16598228
189	0x3e15b4bb	0.14619724
190	0x3e02633d	0.12733169
191	0x3e1f19ac	0.15537137
192	0xbce80a1f	-0.028325139
193	0xbc81080f	-0.015750913
194	0x3d4c6931	0.049905006
195	0xbe05869b	-0.13039629
196	0x3e1addb9	0.15123643
197	0x3d4d9f5c	0.050200805
198	0xbd932f5d	-0.07186768
199	0x3dac94b2	0.08426799
200	0x3d37e1eb	0.044893187
201	0x3df450e5	0.11929492
202	0xbdc92ae2	-0.09822632
203	0xbe10f21b	-0.14154856
204	0x3d92f7d0	0.07176173
205	0x3da73dad	0.081660606
206	0x3e167d12	0.14696148
207	0xbe139428	-0.14411986
208	0x3d3547bf	0.044257876
209	0x3b1858f4	0.002324638
210	0xbe170c98	-0.14750898
211	0x3e2de7f7	0.16983019
212	0xbe1a42d7	-0.1506456
213	0x3dd60efb	0.10452076
214	0x3e10f28c	0.14155024
215	0xb9df8a62	-0.00042636978
216	0xbc04d024	-0.008106265
217	0x3da6b536	0.08140032
218	0x3dd1612b	0.102236114
219	0x3cc8dd7e	0.024519678
220	0x3dd236cf	0.1026436
221	0xbe05ec16	-0.13078341
222	0x3e287902	0.16452411
223	0x3e079749	0.13241304
224	0x3e280e92	0.16411808
225	0xbe1d5617	-0.15364872
226	0x3e176273	0.14783649
227	0x3d8f7b8e	0.07005988
228	0x3d5653d3	0.052326035
229	0x3d0d23e4	0.034458056
230	0xbd9231de	-0.07138418
231	0xbe1ad875	-0.15121634
232	0x3e236443	0.15956216
233	0xbe108b65	-0.14115675
234	0x3df5b39a	0.11997147
235	0xbc8fab39	-0.0175377
236	0x3e308369	0.17237629
237	0xbd745518	-0.059651464
238	0x3ceb8184	0.028748281
239	0x3adc5935	0.0016811254
240	0x3d087f5c	0.033324584
241	0xbcaff3da	-0.021478582
242	0x3da318de	0.079637274
243	0xbd6ea550	-0.058263123
244	0x3d9fec5b	0.07808753
245	0xbd95b910	-0.073106885
246	0xbdd631b9	-0.104587026
247	0x3d9de415	0.07709519
248	0xbe2c26a8	-0.16811621
249	0xbdad5e77	-0.08465283
250	0xbda08e71	-0.078396685
251	0xbe0ed7f0	-0.13949561
252	0x3c319467	0.0108386045
253	0xbe3244e6	-0.17409095
254	0xbc1be00e	-0.009513868
255	0x3d9dcaf4	0.07704726

transformer.layers.0.attn.v_proj.weight f4 [32, 32]
0	0xbe1d0382	-0.1533337
1	0x3cadda34	0.021222211
2	0x3e2ed703	0.17074208
3	0x3dc4fa53	0.09618058
4	0xbde5807a	-0.112061456
5	0x3d24a6ce	0.04019814
6	0xbda9645c	-0.08271095
7	0x3dc0f31c	0.094213694
8	0xbd0745f7	-0.033025708
9	0x3dff1116	0.12454431
10	0xbbd68126	-0.0065461574
11	0x3e081ea9	0.13292946
12	0xbd1e5473	-0.038654756
13	0xbd58fba2	-0.05297435
14	0x3d72bd8c	0.059262797
15	0xbcb679be	-0.022274848
16	0x3dd8c245	0.10583929
17	0x3c38578f	0.011251344
18	0x3df3a98d	0.118975736
19	0x3c8e58ba	0.017376292
20	0xbd5b45a8	-0.053533226
21	0xbdca8344	-0.09888318
22	0xbd27452a	-0.040837444
23	0xbdaca869	-0.08430559
24	0xbddc7e35	-0.107662596
25	0x3d293d06	0.041317962
26	0x3db11247	0.08646064
27	0xbe1ed1a9	-0.15509667
28	0xbd49e989	-0.049294982
29	0x3b3fe986	0.0029283478
30	0x3e0c8596	0.13722834
31	0xbd79fec0	-0.061033964
32	0xbdc2c683	-0.09510519
33	0x3e27f6e6	0.16402778
34	0xbdec964e	-0.11552106
35	0xbd8aa108	-0.067689955
36	0xbe28873d	-0.1645784
37	0x3d75a87f	0.059975144
38	0x3dc6726b	0.09689792
39	0xbe052bab	-0.1300494
40	0x3e01c024	0.12670952
41	0x3d80c821	0.062881716
42	0x3e19b9d7	0.15012299
43	0x3dc3b247	0.09555488
44	0xbcc5245e	-0.024065193
45	0xbe0e7791	-0.13912798
46	0xbe142c6b	-0.14470069
47	0xbe2f3dbe	-0.17113397
48	0x3d281f0c	0.041045234
49	0xbd6e7398	-0.058215708
50	0x3bad3d61	0.005286858
51	0xbd3c8233	-0.046022605
52	0xbe2c8611	-0.16848017
53	0x3dae10d8	0.084993064
54	0xbd710f30	-0.058852375
55	0xbe060232	-0.13086775
56	0xbc8b3758	-0.016994163
57	0xbd8bded6	-0.06829612
58	0xbdf76156	-0.12079112
59	0x3dc9f55b	0.09861251
60	0x3d871ac2	0.065969005
61	0x3d90081a	0.07032795
62	0x3e1459b8	0.1448735
63	0x3e246080	0.16052437
64	0x3d96fc89	0.07372386
65	0x3d0577ff	0.03258514
66	0x3dd77556	0.10520427
67	0x3dd8bade	0.10582517
68	0xbd7b4f24	-0.06135477
69	0xbdcb654c	-0.0993143
70	0x3e172a73	0.14762287
71	0xbde0d03d	-0.10977218
72	0xbd8a8f22	-0.06765582
73	0xbbd0f595	-0.006376932
74	0xbdbdad85	-0.09261612
75	0x3e2ddc1a	0.16978493
76	0x3dcd2628	0.10017043
77	0x3e26c7b0	0.16287112
78	0x3cf40612	0.02978805
79	0x3e0b9e05	0.13634498
80	0xbd1059c3	-0.035241853
81	0xbd08ad83	-0.0333686
82	0x3ddcccda	0.1078126
83	0x3dc44774	0.09583941
84	0x3d892433	0.066963576
85	0x3b731a14	0.0037094401
86	0x3cc79455	0.024362722
87	0x3e26b23d	0.1627893
88	0x3db48b19	0.08815593
89	0x3e0a52dc	0.13508171
90	0x3d8fdb1a	0.07024212
91	0xbd07282e	-0.032997303
92	0xbc738fe6	-0.014865851
93	0xbe33b96b	-0.175512
94	0x3da4fd7e	0.08056162
95	0xbddf2638	-0.108959615
96	0xbe1ecb6f	-0.15507291
97	0xbd21417c	-0.03936909
98	0xbdf92818	-0.121658504
99	0x3d61946f	0.055073198
100	0x3d3843bc	0.04498647
101	0x3e2ad188	0.16681492
102	0xbd9e5e96	-0.077328846
103	0x3dfcd9ab	0.12346204
104	0xbbb05b73	-0.0053819953
105	0x3c0d48eb	0.008623342
106	0x3e2a187a	0.166109
107	0x3dbf3b63	0.09337499
108	0xbd5e062c	-0.054205105
109	0xbce8a9ce	-0.028401282
110	0xbe2a9d3f	-0.16661547
111	0xbe26ce41	-0.16289617
112	0xbb89a1b6	-0.0042001856
113	0x3d2b8f26	0.041884564
114	0x3d36adaa	0.044599213
115	0x3d002ae0	0.03129089
116	0xbe2c9597	-0.16853939
117	0x3dad9d33	0.08477249
118	0x3e208334	0.1567505
119	0x3de4cf55	0.11172358
120	0xbe0d5695	-0.1380256
121	0xbe136973	-0.14395694
122	0xbd929ba5	-0.07158593
123	0xbe31b43f	-0.17353915
124	0xbd86619a	-0.06561585
125	0x3e0d05f8	0.13771808
126	0xbdaf5dcd	-0.08562813
127	0x3de427ef	0.11140429
128	0xbce613f7	-0.028085692
129	0x3cd3d546	0.025858533
130	0xbd94fda7	-0.07274943
131	0xbdad45c1	-0.0846057
132	0x3e2d7b53	0.16941576
133	0x3d3b7ac5	0.04577138
134	0x3cac5c8b	0.021040222
135	0x3cbad265	0.022805402
136	0x3db5c8aa	0.08876164
137	0x3d0a5048	0.03376797
138	0x3d5deb1f	0.054179307
139	0x3d188924	0.037240162
140	0x3c6a2f27	0.014293469
141	0xbcd31f2d	-0.025771702
142	0xbcc4d2d1	-0.024026306
143	0xbe269068	-0.16266024
144	0x3c6ef9f4	0.014585961
145	0xbdb77b80	-0.08959103
146	0x3da608c8	0.08107144
147	0x3cda60e9	0.026657538
148	0x3dc556ed	0.096357204
149	0xbd7ca48f	-0.061680373
150	0x3d9b96ee	0.07597147
151	0xbd902c42	-0.070396915
152	0xbd8e828f	-0.06958496
153	0xbe193f2d	-0.14965506
154	0x3e1e7f02	0.15478137
155	0x3de8b386	0.113623664
156	0xbd864107	-0.06555372
157	0xbe2fa584	-0.17152983
158	0x3c555b41	0.013022245
159	0xbd837956	-0.06419627
160	0xbdbcdbaf	-0.09221589
161	0x3d4a0e4b	0.049330037
162	0x3e00ac0b	0.12565629
163	0x3d090d31	0.033459846
164	0x3ce8fc02	0.02844048
165	0xbe2c1467	-0.16804658
166	0xbddc996c	-0.107714504
167	0x3dfbb047	0.122894816
168	0xbdcaefdf	-0.09909033
169	0x3daad94c	0.08342227
170	0x3e153b79	0.14573468
171	0x3d6bf327	0.057604935
172	0xbda454fc	-0.08024022
173	0xbdee7006	-0.116424605
174	0xbe318c5e	-0.17338702
175	0x3c28da1b	0.010305907
176	0x3e175d04	0.14781576
177	0xbd8f0036	-0.06982462
178	0x3caef8db	0.021358898
179	0x3e10d277	0.14142786
180	0xbe255daa	-0.16149011
181	0xbc2374bd	-0.009976563
182	0xbc734dd8	-0.014850102
183	0xbd706746	-0.05869224
184	0xbda6f49c	-0.08152124
185	0xbdada025	-0.08477811
186	0xbdc176d3	-0.09446492
187	0xbde8a6ec	-0.11359963
188	0x3e1072ae	0.14106247
189	0x3db39c1e	0.08770011
190	0x3db00a9e	0.08595775
191	0xbca29031	-0.019844146
192	0xbd31abe2	-0.04337681
193	0xbe062a25	-0.13102014
194	0x3df48da2	0.11941077
195	0x3e0fc859	0.1404127
196	0x3dd1d2a6	0.10245256
197	0xbe256ded	-0.16155215
198	0xbdaa9f94	-0.08331218
199	0xbdb58ae5	-0.08864383
200	0xbdb71eee	-0.08941446
201	0x3db595a1	0.0886643
202	0x3d32e807	0.04367831
203	0x3e06013f	0.13086413
204	0xbe2f0d81	-0.17094995
205	0x3daeb3ec	0.08530411
206	0x3d524732	0.05133743
207	0xbe2e97ca	-0.1705009
208	0xbd7260fc	-0.059174523
209	0x3b603e9d	0.0034217008
210	0xbdad1de1	-0.084529646
211	0xbde27140	-0.11056757
212	0x3de0a167	0.10968285
213	0xbc9736ca	-0.018458743
214	0x3d9950db	0.07486125
215	0x3c87a29d	0.016557032
216	0xbe27c397	-0.16383205
217	0xbe177d69	-0.14793934
218	0x3e063c3d	0.13108917
219	0xbe33b2bb	-0.17548649
220	0x3df4a0fb	0.11944767
221	0xbd910f8d	-0.07083044
222	0x3a069c2b	0.0005134965
223	0xbddf4e4d	-0.109036066
224	0xbde2f67d	-0.1108217
225	0x3d4b529f	0.04963934
226	0x3d9168f1	0.07100094
227	0xbd977365	-0.07395057
228	0xbd2a3924	-0.0415584
229	0xbe2f23e7	-0.1710354
230	0x3cf17e42	0.02947915
231	0xbe33d4c9	-0.1756164
232	0x3c40961e	0.011754541
233	0xbc1ef327	-0.009701527
234	0xbd4d9978	-0.050195187
235	0xbdd06cd0	-0.10177004
236	0x3e11617f	0.14197348
237	0x3e115ca2	0.14195493
238	0xbdb18b03	-0.086690925
239	0x3e1e563c	0.15462583
240	0x3dcb8774	0.09937945
241	0x3dcc3d54	0.09972635
242	0x3e24c774	0.1609171
243	0x3db4ea16	0.08833711
244	0xbe0850dd	-0.13312097
245	0x3df079a7	0.11741953
246	0x3c21ef39	0.009883695
247	0xbd7402ed	-0.059573103
248	0x3d920437	0.0712971
249	0xbd7ed050	-0.06221038
250	0xbe2175a8	-0.15767539
251	0x3ce14b8a	0.02750184
252	0xbe0eedd7	-0.13957916
253	0x3cae80cb	0.021301648
254	0xbe0bae1c	-0.13640636
255	0xbd8fc351	-0.070196755

transformer.layers.0.attn.out_proj.weight f4 [32, 32]
0	0x3dcf66cf	0.10127031
1	0x3dc76b10	0.097372174
2	0x3cd277f8	0.025691971
3	0xbd9d5a10	-0.07683194
4	0xbda74b52	-0.08168663
5	0xbda0b4b6	-0.07846968
6	0xbdb23901	-0.08702279
7	0x3e1d8f97	0.15386806
8	0xbe0b1ddd	-0.1358561
9	0x3df69eca	0.12042005
10	0xbdce4a1b	-0.10072728
11	0xbe10ce1c	-0.14141124
12	0x3e029914	0.12753707
13	0x3d1656a0	0.036703706
14	0x3c19d280	0.009388566
15	0xbcaa9194	-0.02082137
16	0xbe0ed013	-0.13946562
17	0x3d5dcae9	0.05414859
18	0x3e0f6a42	0.14005378
19	0x3da8aaef	0.08235728
20	0x3df01707	0.11723142
21	0xbd89c3da	-0.06726809
22	0x3d58680c	0.0528336
23	0x3c743138	0.014904313
24	0xbddff5a8	-0.10935527
25	0x3e30b2c6	0.17255697
26	0xbce71b4f	-0.028211264
27	0x3c8b24b5	0.016985277
28	0x3d262f95	0.04057272
29	0xbe0dedd5	-0.13860257
30	0xbcc19023	-0.0236283
31	0xbe06f19d	-0.13178106
32	0x3d7fac9a	0.062420465
33	0xbd0b2459	-0.03397021
34	0xbd105801	-0.035240177
35	0x3d1731a4	0.036912575
36	0x3dbec9bc	0.093158215
37	0x3de0a4ee	0.10968958
38	0x3e2dc028	0.16967833
39	0x3de0afae	0.10971008
40	0x3d8c1ad3	0.06841054
41	0x3da5fd96	0.08105008
42	0x3d8b1472	0.06791009
43	0xbe072ee9	-0.13201489
44	0x3d8fd6ce	0.070233926
45	0x3e0477f9	0.12936391
46	0xbc1ee8dd	-0.009699074
47	0xbdf70f13	-0.12063422
48	0x3df9c280	0.12195301
49	0xbdae1eea	-0.0850199
50	0xbcd8e1d2	-0.026474867
51	0x3e258867	0.16165315
52	0x3dd2907b	0.10281464
53	0x3e022566	0.12709579
54	0x3ba687c6	0.0050821034
55	0xbe139720	-0.14413118
56	0xbcb6e0d4	-0.022324003
57	0xbdb0c723	-0.08631732
58	0x3df254b6	0.118325636
59	0xbda5f31e	-0.081030115
60	0xbd1fedba	-0.039045073
61	0x3e0f8e01	0.14019014
62	0xbe1c57a2	-0.15267804
63	0xbd8baf63	-0.06820562
64	0x3e00bab6	0.12571225
65	0x3d285faa	0.041106857
66	0xbdb918a9	-0.09037907
67	0xbd5cfca0	-0.05395186
68	0x3d319469	0.043354426
69	0xbd90ef37	-0.070768766
70	0x3e104d14	0.14091903
71	0x3c972553	0.018450415
72	0x3c24f2f6	0.010067692
73	0xbd84d122	-0.064852014
74	0xbe17acb7	-0.14811979
75	0xbdeb3725	-0.11485127
76	0x3dc66083	0.09686377
77	0xbe1c8dda	-0.15288487
78	0xbdedf3fc	-0.11618802
79	0xbda4d085	-0.080475844
80	0x3d75633c	0.05990909
81	0xbdf580fb	-0.11987492
82	0xbddca64b	-0.10773905
83	0x3e03d218	0.12873113
84	0x3bbdfd21	0.0057979976
85	0x3d9481c5	0.07251314
86	0xbcd16f90	-0.025565892
87	0xbd99be10	-0.07506955
88	0x3e236d5c	0.15959686
89	0x3d57e0cd	0.05270462
90	0xbdf3dded	-0.11907563
91	0xbd7dc603	-0.061956417
92	0x3ce9a1a4	0.02851946
93	0x3d8690ca	0.06570585
94	0xbca9dced	-0.020735228
95	0xbbe13060	-0.006872222
96	0xbe1f5b87	-0.15562259
97	0x3db707b0	0.08937013
98	0xbe1569b3	-0.14591102
99	0x3e1c9d4b	0.15294378
100	0x3e2db863	0.16964869
101	0xbd1c3533	-0.038136672
102	0xbe2d30c6	-0.16913137
103	0x3d8853d5	0.06656615
104	0x3daed534	0.08536759
105	0xbbb327c9	-0.0054673892
106	0x3e1406e1	0.14455749
107	0xbda1b40d	-0.0789567
108	0x3e152b63	0.14567332
109	0xbc8c7c51	-0.017149122
110	0x3d5776cb	0.052603524
111	0x3da835c5	0.08213381
112	0x3e1a61d5	0.15076382
113	0xbbdd7c0a	-0.0067591714
114	0x3d973c02	0.073844925
115	0xbda439de	-0.0801885
116	0xbe084afd	-0.13309856
117	0x3da8851c	0.082285136
118	0xbe011cd4	-0.12608653
119	0xbde9d4dc	-0.11417553
120	0x3e151199	0.14557494
121	0x3e209d31	0.15684964
122	0x3e2e66c5	0.17031391
123	0xbd082450	-0.033237755
124	0x3d75217a	0.05984638
125	0xbe09b368	-0.13447344
126	0xbdda097f	-0.106463425
127	0x3cd76d54	0.026297249
128	0xbe13ed28	-0.14445937
129	0xbd1fd8cf	-0.039025124
130	0x3d9d201d	0.07672141
131	0x3e195810	0.14975
132	0xbe1d14ce	-0.15339968
133	0xbde03b93	-0.10948863
134	0x3d4e8dc6	0.050428174
135	0x3e2aaba0	0.16667032
136	0x3db36cbd	0.087609746
137	0xbda3fb26	-0.08006887
138	0xbda946e1	-0.08265472
139	0xbd27ff6e	-0.04101508
140	0xbd0516a2	-0.032492287
141	0x3c40a2ea	0.011757592
142	0xbe233706	-0.15938959
143	0xbe07a0f0	-0.13244987
144	0xbda282a2	-0.079350725
145	0xbdec4541	-0.11536647
146	0x3d19ba18	0.03753099
147	0xbe205f55	-0.15661366
148	0x3e23b5b1	0.15987279
149	0x3dfb2d6c	0.12264523
150	0xbd240194	-0.040040568
151	0x3e0760f2	0.13220575
152	0xbdfbb400	-0.12290192
153	0x3c4f27f6	0.012643805
154	0x3c3f8c5f	0.011691182
155	0x3e2626a6	0.1622568
156	0xbca3644e	-0.01994529
157	0x3c8b63c9	0.017015355
158	0xbd119588	-0.035542995
159	0xbd52f22b	-0.05150048
160	0xbe0d646b	-0.13807838
161	0xbdb1a234	-0.08673516
162	0x3e0fede9	0.140556
163	0x3ddc7aa3	0.107655786
164	0x3c8b39ca	0.01699533
165	0xbb642d82	-0.0034817164
166	0x3e096235	0.1341637
167	0xbe117708	-0.14205563
168	0x3c2b05bd	0.01043838
169	0xbdb6c0df	-0.08923506
170	0x3bf2af71	0.007406168
171	0xbdff9555	-0.12479655
172	0xbcbeb60e	-0.02328017
173	0x3d3d9877	0.04628798
174	0xbb70e664	-0.0036758417
175	0xbd3550aa	-0.04426638
176	0x3ba4cda8	0.005029399
177	0x3e07df09	0.13268675
178	0xbda72a69	-0.08162386
179	0x3d1aabe0	0.03776157
180	0x3b662ad4	0.0035120742
181	0x3b8661c6	0.004101011
182	0xbe161db9	-0.14659776
183	0xbdf5576b	-0.11979564
184	0x3e13a33e	0.1441774
185	0xbd2fd851	-0.042930905
186	0x3e224e9d	0.15850301
187	0x3d5ca606	0.05386927
188	0x3c782275	0.015144934
189	0xbddd8afb	-0.10817524
190	0x3e0e4554	0.13893634
191	0xbe0b1286	-0.13581285
192	0xbe27bd43	-0.16380791
193	0xbd90e7de	-0.07075475
194	0x3e029f54	0.12756091
195	0xbe0c469b	-0.13698809
196	0x3e0ce30d	0.13758488
197	0x3dc156fe	0.094404206
198	0x3df560b5	0.11981336
199	0x3dd0c13b	0.10193106
200	0x3c5b381e	0.013380079
201	0x3db241c6	0.087039515
202	0xbdf0343f	-0.11728715
203	0x3e1003ef	0.14064
204	0xbe23f244	-0.16010386
205	0x3d3d81ef	0.046266492
206	0x3df6336b	0.12021526
207	0x3be6df09	0.007045631
208	0xbe1bdc80	-0.15220833
209	0x3d3b1ce5	0.045681853
210	0x3e114a36	0.14188465
211	0x3a13935f	0.0005629565
212	0x3d87ed67	0.06637078
213	0x3c856211	0.016282113
214	0xbdfef0c4	-0.12448266
215	0xbd806c5c	-0.06270668
216	0x3de01506	0.1094151
217	0x3e021f88	0.1270734
218	0xbe0e40c5	-0.13891895
219	0xbddd0117	-0.107912235
220	0x3e10d2a5	0.14142855
221	0xbe053301	-0.13007738
222	0xbe06cfa6	-0.13165149
223	0xbda1eaeb	-0.07906135
224	0xbe2f17a8	-0.17098868
225	0x3e147952	0.14499405
226	0xbce324ed	-0.027727569
227	0xbd285b7d	-0.041102875
228	0xbd73088a	-0.059334315
229	0x3da0ada4	0.07845619
230	0x3e23f331	0.16010739
231	0x3e07b34b	0.13251989
232	0x3dc80cab	0.09768041
233	0x3e1e4515	0.1545604
234	0xbde7d14d	-0.11319218
235	0x3d1986cd	0.03748207
236	0x3d6b9929	0.05751911
237	0xbdaa101b	-0.08303853
238	0xbde8ac65	-0.11361007
239	0xbd5cf045	-0.053940076
240	0xbbe95118	-0.007120263
241	0x3c4f426b	0.012650113
242	0x3d07c4e5	0.033146758
243	0x3af5df34	0.0018758536
244	0x3e28e9d5	0.1649545
245	0x3cc91172	0.024544451
246	0x3da19893	0.07890429
247	0x3d5c4a1f	0.053781625
248	0xbc4d1dd0	-0.012519315
249	0x3de87941	0.11351252
250	0xbd894485	-0.06702522
251	0x3e2d5a70	0.1692903
252	0xbe295b61	-0.16538765
253	0x3e01844e	0.12648126
254	0xbdd985cc	-0.10621223
255	0xbe10fdfa	-0.14159384

transformer.layers.0.attn.out_proj.bias f4 [32]
0	0xbe28a63f	-0.16469668
1	0xbdab294a	-0.08357485
2	0x3e164bef	0.14677404
3	0x3ddf5a37	0.10905879
4	0x3dfcf2e1	0.12351013
5	0x3dbd7f6a	0.09252818
6	0x3e27c89f	0.16385125
7	0x3d2b9cbe	0.041897528
8	0xbdc092c0	-0.0940299
9	0x3cbf0251	0.023316534
10	0x3e31433c	0.17310804
11	0xbc58b35c	-0.013226356
12	0x3df03cb8	0.11730331
13	0x3e2749f0	0.16336799
14	0x3c8231cb	0.015892884
15	0xbe0c67c9	-0.13711466
16	0xbe09fa33	-0.1347435
17	0xbe1a0d5b	-0.15044157
18	0x3d9b1510	0.07572377
19	0x3dca9294	0.09891239
20	0xbd995eb9	-0.0748877
21	0x3dbfac61	0.093590505
22	0x3d386727	0.04502025
23	0xbdeb49c5	-0.1148868
24	0x3dca06cb	0.09864577
25	0x3e0907b2	0.13381842
26	0x3dbf3ecf	0.09338152
27	0xbcab19ce	-0.020886328
28	0xbe00a42e	-0.1256263
29	0x3cb71564	0.022349067
30	0xbe046a1f	-0.12931107
31	0x3df1f9b2	0.11815204

transformer.layers.0.ff_norm.weight f4 [32]
0	0x3f800007	1.0000008
1	0x3f7ffff9	0.9999996
2	0x3f800006	1.0000007
3	0x3f80000a	1.0000012
4	0x3f800002	1.0000002
5	0x3f7fffff	0.99999994
6	0x3f800003	1.0000004
7	0x3f7ffff5	0.99999934
8	0x3f7ffff4	0.9999993
9	0x3f7ffff9	0.9999996
10	0x3f7fffff	0.99999994
11	0x3f800003	1.0000004
12	0x3f800002	1.0000002
13	0x3f800007	1.0000008
14	0x3f800005	1.0000006
15	0x3f7ffff9	0.9999996
16	0x3f7ffffb	0.9999997
17	0x3f800002	1.0000002
18	0x3f800002	1.0000002
19	0x3f800001	1.0000001
20	0x3f7ffffc	0.99999976
21	0x3f7ffff6	0.9999994
22	0x3f800004	1.0000005
23	0x3f800003	1.0000004
24	0x3f7ffff8	0.9999995
25	0x3f7ffff8	0.9999995
26	0x3f800006	1.0000007
27	0x3f800003	1.0000004
28	0x3f800002	1.0000002
29	0x3f800002	1.0000002
30	0x3f7ffffc	0.99999976
31	0x3f800002	1.0000002

transformer.layers.0.ff.net.0.w1.weight f4 [64, 32]
0	0xbc2a9b10	-0.010412946
1	0x3c26627d	0.010155317
2	0xbdc6a489	-0.09699351
3	0x3db94254	0.09045854
4	0x3c0498a9	0.008093038
5	0xbb27e60d	-0.0025619299
6	0x3cd3b706	0.025844108
7	0xbdcf9b4e	-0.10137044
8	0x3e282c4b	0.16423146
9	0x3d8aab72	0.06770982
10	0x3e0c30c1	0.13690473
11	0xbdee8abe	-0.11647557
12	0x3e089fd9	0.13342227
13	0xbe1db614	-0.15401489
14	0xbe03c154	-0.12866718
15	0xbc6e2bad	-0.01453678
16	0xbd957ebe	-0.07299565
17	0xbc069d8b	-0.008216272
18	0xbe1915d5	-0.14949735
19	0x3e12d38b	0.1433851
20	0x3e06331a	0.13105431
21	0x3d4e2b65	0.050334353
22	0x3e0f8b33	0.14017944
23	0x3d655a54	0.055994347
24	0xbdb9d967	-0.09074669
25	0x3d9b8b6a	0.075949505
26	0x3d703a80	0.05864954
27	0x3d3415b6	0.043966018
28	0x3de2f91e	0.110826716
29	0x3cf257b4	0.029582836
30	0xbde97303	-0.1139889
31	0xbcfe1b9d	-0.031019026
32	0xbdf1a865	-0.11799697
33	0x3e2efec5	0.17089374
34	0x3dce764e	0.100811586
35	0xbe0c8ab5	-0.13724788
36	0xbe18c4b1	-0.14918782
37	0x3d8a0426	0.067390725
38	0xbd42ed69	-0.047589693
39	0x3e13b82f	0.14425729
40	0xbe16fbf6	-0.14744553
41	0x3c8a1b1c	0.01685863
42	0x3d772832	0.060341068
43	0x3c85466f	0.016268937
44	0x3db510dd	0.08841107
45	0xbe32c1b6	-0.17456707
46	0x3e12a34a	0.14320102
47	0xbe1c5771	-0.15267731
48	0x3d9e4327	0.07727652
49	0x3db5d3ae	0.08878265
50	0xbe0f8280	-0.14014626
51	0xbe17a913	-0.1481059
52	0xbd1474e4	-0.036244288
53	0xbe114707	-0.14187251
54	0xbe13138d	-0.14362927
55	0x3e06922a	0.13141695
56	0xbe036f67	-0.12835465
57	0x3dc18c69	0.09450609
58	0x3dc6fcac	0.09716162
59	0x3dd30dd4	0.10305372
60	0xbd66ab89	-0.056315932
61	0x3e33ec54	0.17570621
62	0xbd90986a	-0.07060321
63	0x3d853c58	0.0650565
64	0xbe02cba7	-0.12773
65	0x3e038075	0.12841971
66	0x3d9f4736	0.07777254
67	0xbd919304	-0.07108119
68	0x3d9ebfbf	0.077514164
69	0xbe34ec41	-0.17668249
70	0xbe256a55	-0.16153844
71	0xbd0c801c	-0.034301862
72	0x3d15922a	0.036516346
73	0x3cc161ff	0.023606298
74	0x3d61611d	0.055024255
75	0x3c8b16fa	0.01697873
76	0xbe2f4701	-0.1711693
77	0x3b44e50a	0.0030043744
78	0x3de2598c	0.11052236
79	0xbe05f2b9	-0.13080873
80	0x3e261089	0.16217245
81	0x3b86dc2f	0.0041156034
82	0x3d974d7b	0.07387825
83	0x3d1c9904	0.038231865
84	0x3ca7ee02	0.020499233
85	0xbdc299f7	-0.09502023
86	0x3dd794c7	0.10526424
87	0xbe196694	-0.14980537
88	0xbe0c9807	-0.13729869
89	0xbd1fbd74	-0.038999036
90	0xbe0444f6	-0.12916932
91	0x3de86fd5	0.11349455
92	0x3db7c389	0.08972842
93	0xbe1f01cc	-0.15528029
94	0x3d2d5bdb	0.04232393
95	0xbdce317f	-0.100680344
96	0xbdb4a865	-0.08821181
97	0xbcb9faa6	-0.022702526
98	0x3d3919a0	0.045190454
99	0x3dcef713	0.101057194
100	0xbd8ed47d	-0.06974123
101	0xbdc89424	-0.097938806
102	0xbd29481c	-0.041328534
103	0xbe0ae073	-0.13562183
104	0xbdb9d58e	-0.090739354
105	0x3e28c906	0.16482934
106	0x3de2f647	0.1108213
107	0x3e117010	0.14202905
108	0xbe2551a2	-0.16144422
109	0x3da11348	0.07865006
110	0xbd229988	-0.0396972
111	0x3e24ac00	0.16081238
112	0xbcf123ce	-0.029436018
113	0xbe0c559f	-0.13704537
114	0x3e31a35d	0.17347474
115	0x3dee7b40	0.11644602
116	0x3daa1145	0.08304075
117	0xbe2ee913	-0.17081098
118	0x3d82a7d9	0.06379671
119	0x3c86e5b3	0.016466951
120	0xbdaff9f6	-0.08592598
121	0x3e09b3cc	0.13447493
122	0x3e214b06	0.15751275
123	0xbcef4405	-0.029207239
124	0xbdd6ba96	-0.10484807
125	0xbc1a6336	-0.009423068
126	0xbe18f4ea	-0.14937177
127	0xbe173b99	-0.14768828
128	0xbd91f763	-0.071272634
129	0xbe2f3c6e	-0.17112896
130	0x3dd50930	0.10402143
131	0x3e2c7b96	0.1684402
132	0x3e1447a8	0.1448046
133	0xbcf324ff	-0.029680727
134	0x3dad38fe	0.08458136
135	0xbe1d70ad	-0.15375014
136	0xbcb86844	-0.022510655
137	0xbe05a8a4	-0.13052613
138	0xbde9645d	-0.11396096
139	0xbbda5129	-0.006662507
140	0xbd9ede1d	-0.077572085
141	0x3dbbf7a0	0.0917809
142	0xbdb006f7	-0.085950784
143	0x3e00ccbb	0.12578098
144	0xbcfa7eaf	-0.030577986
145	0xbe0e00d0	-0.13867497
146	0x3d403fe4	0.04693593
147	0xbe2fd680	-0.17171669
148	0xbd643a35	-0.055719573
149	0xbcf3587c	-0.029705279
150	0x3e16783b	0.14694302
151	0xbc7df7f6	-0.015501013
152	0xbd40e32a	-0.04709164
153	0x3e1e7e07	0.15477763
154	0xbd0cb360	-0.034350753
155	0x3d377525	0.044789452
156	0x3e287026	0.16449031
157	0xbdc2b560	-0.09507251
158	0xbc328ab4	-0.010897327
159	0xbe11027a	-0.14161101
160	0xbbc475d3	-0.005995491
161	0x3cdc680f	0.026905088
162	0xbd280411	-0.041019503
163	0x3dc0f830	0.09422338
164	0xbe2b87d7	-0.16751038
165	0xbe2beb22	-0.16788915
166	0x3b52973e	0.0032133604
167	0xbcf822f6	-0.030290108
168	0x3e131850	0.14364743
169	0xbba05cc8	-0.004893873
170	0x3d6b1cca	0.057400502
171	0xbe29d298	-0.16584241
172	0x3c56df43	0.013114753
173	0xbe14ee8b	-0.14544122
174	0x3e305376	0.17219338
175	0x3e0363e1	0.1283107
176	0xbd839b84	-0.064261466
177	0x3d980094	0.07421985
178	0xbd6f950f	-0.058491763
179	0x3d6e168e	0.05812698
180	0x3bf8f084	0.007597031
181	0xbc41022e	-0.011780305
182	0x3da6c4ee	0.0814303
183	0x3b389b51	0.0028168748
184	0xbc763d0a	-0.015029201
185	0x3e05fff3	0.13085918
186	0x3d014f2a	0.031569637
187	0xbd20a827	-0.039222863
188	0x3ba5a584	0.0050551314
189	0x3dad34b3	0.08457317
190	0xbe124d27	-0.14287244
191	0x3d6b1c1f	0.057399865
192	0x3e199922	0.14999822
193	0x3bb951ee	0.0056555187
194	0x3e0571db	0.13031714
195	0x3de811dc	0.113315314
196	0x3cae2e1c	0.021262221
197	0x3e27deba	0.16393557
198	0x3c8444be	0.01614606
199	0xbcd711bc	-0.026253574
200	0x3dd0ce24	0.10195568
201	0xbe08e0a9	-0.13366951
202	0x3e21d373	0.15803318
203	0xbd20c4ee	-0.039250307
204	0xbe16413e	-0.14673325
205	0xbd6cfc4d	-0.0578578
206	0xbe209d5a	-0.15685025
207	0x3de3dfcf	0.111266725
208	0xbd634ff7	-0.055496182
209	0x3d847275	0.064671434
210	0xbdaada59	-0.08342428
211	0x3e232958	0.1593374
212	0x3baac4d4	0.005211452
213	0x3dcecbfb	0.100975
214	0x3d1da24b	0.038484853
215	0xbdf3cc44	-0.11904195
216	0x3d551306	0.052020095
217	0x3ce8dd88	0.028425947
218	0x3d8deb83	0.06929686
219	0x3d40260e	0.04691129
220	0xbe3341b3	-0.17505531
221	0x3d30664a	0.0430663
222	0xbe1b3788	-0.15157902
223	0xbe0ff754	-0.14059192
224	0x3e2e0e8d	0.16997738
225	0x3e24c1ec	0.160896
226	0x3d35b6b6	0.0443637
227	0xbdd71531	-0.10502089
228	0xbda9efc7	-0.08297687
229	0x3d2e1d03	0.042508136
230	0x3e3439b5	0.17600138
231	0x3e23621c	0.15955395
232	0x3c8670f7	0.016411288
233	0x3d724444	0.059147134
234	0xbe2275d5	-0.15865262
235	0x3d3e3188	0.046433955
236	0x3e2e65ec	0.17031068
237	0xbe0e56a4	-0.13900238
238	0x3e18b527	0.14912854
239	0xbe07fa7c	-0.13279146
240	0xbdb91507	-0.09037214
241	0x3e2d3794	0.16915733
242	0x3d506cfb	0.050885182
243	0xbe0ac12d	-0.13550253
244	0x3dcd5379	0.10025687
245	0xbd52869d	-0.05139791
246	0x3e334d19	0.17509879
247	0xbde126b0	-0.10993707
248	0xbdc231b4	-0.09482136
249	0x3dec3827	0.11534148
250	0x3e0cab70	0.13737273
251	0xbcc427cc	-0.023944758
252	0x3d244b8d	0.040111113
253	0xbdabd072	-0.08389367
254	0x3e24c2f1	0.16089989
255	0x3dbaf3a7	0.09128504
